streamlit/final_model.pt (torch, 258181 bytes, 14 tensors)

lstm.weight_ih_l0 f4 [256, 35]
00000000: c178 883d db9e 643d f4d3 21bd 3e3f d63d
00000010: 74e9 19bd e6cf 763c cb22 91bd 9ce8 813d
00000020: 44bc ce3d 32bf cebd 6103 ca3d 74ad 093d
00000030: 33cc a83d 5ba4 e03b b249 e43d f24c 34bd
00000040: d084 d33d 3a70 493d 87d4 48bd 51cf b63c
00000050: e2d0 97bd 4461 c4bc 5b12 0abc f90e 973d
00000060: 60e9 66bd d586 88bd c4c2 e43b c92b acbd
00000070: b072 5d3d 5b5a 07be 48de 1e3e 6dd0 eabd
00000080: c014 0e3e dc96 063d a3f7 92bd 7fc0 c93d
00000090: ce75 a93c 24ee 083e 4902 3e3d 309f d2bb
000000a0: 4f57 883d 7c37 d6b9 a842 b03d 4fba 153e
000000b0: dc9e da3d e052 adbc 25fb f43d 6477 673d
000000c0: d42d c53d a99c d4bd 049e 28be 6861 17bc
000000d0: 1779 b0bd 4888 e93d 5f14 8e3d e8a3 a23d
000000e0: eb66 963d 6729 c53c c038 073e 2977 82bd
000000f0: 9d77 2d3d bcbd 78bd d30f 963d ae4a 9abc
00000100: e345 963d 7c5d 12bb 4283 0e3e fd86 4fbd
00000110: c81d 0ebd a003 e6bd 08d2 ae3d f832 4abb
00000120: 7d48 d53d 5e52 f4bd 674e 0fbe 34fc e8bd
00000130: c834 ccbd 013e 0f3d b613 f53c 6c0c b63d
00000140: e233 a4bd b333 fbbc 15ff 523d a221 89bd
00000150: 7a32 e63d 817f 17bd 7df7 013e 0ef6 70bd
00000160: 1272 a6bc fd4d b33c f8f8 8d3d 07d1 42bd
00000170: 6288 493d cb91 8e3d 6a89 edbd 8294 a7bd
00000180: 067e b63d 0279 69bd 62b0 8ebd e4a0 0abe
00000190: d48c c6bd 3fbd 8d3c ca7e 2bbd cc70 2fbd
000001a0: 85ff f23c 9f77 97bd db22 9ebd c875 dfbd
000001b0: ae49 19be 7345 f5bd 7c8a ad3d b310 87bc
000001c0: f38b daba 7fb8 20be 6ff6 fabd 5254 a7bd
000001d0: 6e42 e0bb c103 1abe 22c3 bfbd 8c5d d0bd
000001e0: 069a 0e3c 22a6 38bd 0506 55bd ae11 16be
000001f0: 02e1 00be 066d 8cbd 7241 aabd 1003 03be
00000200: aba8 833d 9daa 5dbd 01fb 883d c2bb 1d3c
00000210: 182d 16be c732 6a3d 416c 9abd 9134 9ebd
00000220: 1d81 14be 584b 1dbe eaa4 b83c 069f 41bc
00000230: 6554 b53c 723c 03be d315 b53d dedf c4bd
00000240: 9312 d5bc 3be3 b13c 7d4b 763d 91be c53d
00000250: 9ac8 e03d 8270 d3bd a0a7 dd3c 05f6 31bd
00000260: 224d 92bc 4022 c9bd 89f3 1f3e e70e a0bd
00000270: 8835 8f3d 8108 9b3d ec83 5f3d d38a 93bd
00000280: 4168 093e 2c43 be3c 34cd 9cbb 2505 eabd
00000290: ebd0 003d de6d babc 2f79 a0bd 38e7 d33d
000002a0: ccb3 dc3b ed52 95bd 39ef acbd 7a41 1cbc
000002b0: c805 473d 1ea4 e3bc 32fd 7ebd c161 32bd
000002c0: 4441 adbd 02d8 8d3d 91b9 f83d 614f bebd
000002d0: c57e 5c3d af94 b73d 92b4 433d 7b2d 96bc
000002e0: a2ee ba3d 5bdd b93d 3b3b 6f3d b389 673b
000002f0: 24a2 0abc 12c9 023d 8843 91bd 400a 10bd
00000300: 4a43 e73d 1897 0b3e 062a 5a3c fe4b 973d
00000310: 548f e33c b370 f43c 5b13 663d 84ee 923d
00000320: e9be b2bd 7cdb 1dbc b5d0 063e f930 ae3d
00000330: 88d8 a63c 4c41 20bd f553 4bbd 7c4b 9bbd
00000340: e383 c5bc 2e12 edbc 005b 843d eaf0 853d
00000350: ff37 b0bd 49c9 4fbd c8d5 9a3b c3d2 143e
00000360: 4ac4 2d3d b7fe 04bc 5b1a 9a3d bdf2 c4bc
00000370: 55b1 67bd c653 913d e8ae 05bd 7d02 18ba
00000380: 608d fbbd 8f39 aa3d 417e a53d 9bd2 9e3d
00000390: d1c5 95bd 1c26 cbbd d9b5 e9bd 358f ef3d
000003a0: 6a46 c13d a7c7 033e 6e78 cc3d b200 613d
000003b0: 5ab2 073d cc67 93bd 42fb 94bd 8ac5 c0bd
000003c0: 5a25 af3d 9191 1fbd 679b 163c a242 fabd
000003d0: d854 11bd 6ff9 77bd baa3 a4bd 9c6a 8f3d
000003e0: cea5 0cbc c0ac d83d bfcc 3bbc bad2 80bd
000003f0: 44e1 dc3b 045d 00bd cb9d 14bc a5bd b8bd
0.06663657 0.05581556 -0.039508775 0.10461281 -0.037576154 0.015064215 -0.07086714 0.06343195
0.100945026 -0.10095061 0.09863926 0.033612683 0.08242073 0.00685553 0.11146869 -0.044018693
0.10328066 0.049179293 -0.049030807 0.022315653 -0.07412888 -0.023972161 -0.008427228 0.07375903
-0.056374907 -0.06666342 0.0069812257 -0.08406789 0.054064453 -0.13218062 0.15514481 -0.11465535
0.13875103 0.032858714 -0.07176139 0.09851169 0.020686056 0.13372093 0.046388898 -0.006427668
0.06657278 -0.000408586 0.08606464 0.14621852 0.10674831 -0.021157682 0.119619645 0.056510344
0.09627882 -0.10381443 -0.16466528 -0.009239532 -0.08616846 0.11402947 0.06937479 0.07941419
0.07343849 0.024067594 0.13205242 -0.06370384 0.0423504 -0.06072782 0.07327237 -0.018834438
0.073375486 -0.0022333553 0.13917258 -0.050665844 -0.03469637 -0.1123116 0.08536154 -0.0030853134
0.10414217 -0.11929773 -0.13994752 -0.11376229 -0.09971005 0.03497124 0.029916625 0.08889088
-0.08017708 -0.0306643 0.051512796 -0.06695868 0.112400964 -0.03698683 0.12692066 -0.058828406
-0.020318065 0.021887774 0.06932253 -0.047562625 0.04920233 0.069614016 -0.11598475 -0.081826225
0.08910756 -0.057000168 -0.06967236 -0.13537937 -0.096948296 0.017302154 -0.041868962 -0.04283218
0.029662857 -0.07395863 -0.07721492 -0.10911137 -0.14969513 -0.11976137 0.084736794 -0.016487455
-0.0016673788 -0.1569538 -0.12254035 -0.0817038 -0.0068438565 -0.15040495 -0.093633905 -0.10174093
0.008703714 -0.04508031 -0.052007694 -0.14655182 -0.12585834 -0.06856732 -0.08313264 -0.12794137
0.06428655 -0.054117788 0.066885 0.0096272845 -0.1466564 0.05717733 -0.07540179 -0.0772487
-0.14502378 -0.15360773 0.022539575 -0.011817699 0.022134969 -0.12816027 0.08842053 -0.09613012
-0.026009833 0.021714797 0.060130585 0.09655488 0.10975762 -0.103241935 0.027057469 -0.043447513
-0.017859045 -0.09820986 0.15620245 -0.078153424 0.06992632 0.07569981 0.05456917 -0.07204213
0.13418676 0.02322539 -0.0047852043 -0.114267625 0.03144924 -0.022757467 -0.07835614 0.10346836
0.0067353006 -0.072912075 -0.084440656 -0.009537095 0.048589498 -0.027788218 -0.062253185 -0.043550257
-0.08459714 0.06925966 0.12144769 -0.09292484 0.053831834 0.08963906 0.047779627 -0.018332234
0.09127547 0.09075423 0.058406096 0.0035329878 -0.008461509 0.031930037 -0.07092959 -0.035166025
0.11292131 0.13631856 0.013315683 0.07387541 0.027778305 0.029838895 0.056170803 0.071743995
-0.087278195 -0.009634849 0.13165553 0.085054345 0.020366922 -0.039124772 -0.049640615 -0.07582757
-0.02411074 -0.028939333 0.064626694 0.06540091 -0.086044304 -0.05072907 0.0047251917 0.14533524
0.042423524 -0.008117369 0.07524558 -0.024041528 -0.0565656 0.07096057 -0.032637507 -0.00057987106
-0.122828245 0.0831176 0.08080722 0.077550136 -0.07313121 -0.09919378 -0.11411638 0.116972364
0.094372585 0.1286913 0.09983908 0.054932304 0.033129074 -0.07197532 -0.07274486 -0.094126776
0.08552046 -0.038957182 0.009192324 -0.122197405 -0.035481304 -0.060540613 -0.08039041 0.07002756
-0.008584453 0.105798244 -0.0114623895 -0.06290193 0.006740721 -0.031338707 -0.009070824 -0.09020547

lstm.weight_hh_l0 f4 [256, 64]
00000000: 72d9 0d3c 2f78 123e 48f2 b23d 2b93 063e
00000010: 5cbd 30bb 3749 bf3c 2d06 213e 8c20 5dbd
00000020: c74f ca3d cbc9 66ba b617 e7bd 6488 d33d
00000030: 08a1 013d cecc febd 704f 273e 8762 82bc
00000040: 3b3a 1c3d 3d1f d5bd 7a28 75bd 54bf 16be
00000050: e572 ef3c ba33 883d 7421 6d3d da97 82bc
00000060: 99e2 7cbc 6861 913d ae1e 073e 790c 60bd
00000070: 74a1 22bd 34bd 60bd 8852 d6bd d2a5 b3bd
00000080: 3d1c 9b3d cdcc 273d a3c6 76bd b63a 1dbd
00000090: 2fa6 363d ade6 64bd c995 7dbd 05b4 003d
000000a0: 7130 27bd 60a9 553c 631f 893d 6a50 dd3d
000000b0: baef 823d 695b c23c a9b1 963c d892 64bd
000000c0: e608 18be 7850 52bc 5539 84bd 92ef 09be
000000d0: de22 a5bd 1a2b 16bd f86d 9fbd c626 8e3d
000000e0: 01e6 af3d 8874 623c 3b76 31be c254 b23d
000000f0: 03c3 8ebb a09e af3d 9aee b23d 22d9 533b
00000100: 9b26 463c f79c 263e ace0 1abd 5228 1a3e
00000110: a364 533d c7d2 98bb caec 95bb 4a2f 1bbe
00000120: dfea 1d3d e157 943d 008a 703d 8523 ac3c
00000130: 31ec 7ebb bcaa 30bd 790f 063e c100 963d
00000140: 625e 86bc f265 1dbd df51 0c3d 3bc3 c7bc
00000150: 09c8 40be 65f8 273e d510 923c 3ea6 82bd
00000160: 57a9 f43c 4af6 0e3e 6c23 0a3e 0a43 81bb
00000170: e85f 283e 52d3 64bb b959 a33c b9c0 d23c
00000180: 8dba 48bd 5fc8 2b3d b9b1 ab3a 70f4 49bd
00000190: 9fdc ab3c 646f a1bd 7f91 323d 654c b83c
000001a0: 2e50 85bd ad7c 4dbd 058a 003d 8e8d 973d
000001b0: 6309 0cbe 73e2 07be 5779 73bd 9bcc 883d
000001c0: 147a 18be 0101 f2bc dc95 813d 27e7 653d
000001d0: 3e44 173e 5bad 233b 3e86 e73c 0008 acbd
000001e0: ceec 2a3e 3a52 c63c 92d9 fc37 baa5 1ebe
000001f0: 6c01 cd3c fd9b e8bc 20b2 733d 6f79 113d
00000200: 7584 003d 3460 a3bc 1e8e e13d e2ba f43d
00000210: 2754 05bd 0981 9abd 84c5 bebd 9b6f f0bd
00000220: b1cd 8ebd dbf7 07be d3cf e9bc 8634 f0bd
00000230: 4fb3 b93d b345 0abe 3610 44bd 09d1 cebd
00000240: e14e 84bd 0a19 123d ea0b 533d a515 ba3d
00000250: b4dc 72bd e375 453d 9caf e2bb 8670 d43c
00000260: 07c4 983d c055 583d cd3e b23d 3512 eb3d
00000270: 4df7 673d 5980 753d bd9d 69bd 8a2e 6fbd
00000280: 0138 94bd 3bbf dcbc 6aa0 283d 16c8 e7bd
00000290: 0c4b e2bd 9a69 f4bb 81f7 6e3d a122 2e3d
000002a0: be3a e7bd 0c3a 6f3c 64b0 8a3d 97c4 a7bc
000002b0: cbf2 cf3c 620c acbd 47cb 023b 73c5 82bd
000002c0: e0a7 3bbd 98b4 52bd a02b 133e 3586 89bb
000002d0: b60a 97bd b818 723c 2516 df3d ae93 bdbd
000002e0: b7e9 2fbd d031 84bd 7732 2dbe 49b1 5cbd
000002f0: 0a15 5fbc 181a b7bd ac79 b0bd bc43 eebd
00000300: fbd8 9fbd 0765 a3bc 4bac 6d3d dab0 ae3d
00000310: 5557 e23d d35a af3d c3de dfbd 8507 623c
00000320: 84fe 5cbd 4a78 a93d 5d6f 58bc cd3f f83a
00000330: 4e65 10be 55c4 b53d 2deb c9bd cade 023d
00000340: 618c f1bd 7389 cd3d 551c 97bd 2b26 fcbd
00000350: 03e5 793d 33e7 883d 982b 3e3d 100b 563d
00000360: d634 c73d fbe5 12be 24a2 813d 910c 723d
00000370: c252 a4bd 1c68 853d 67b7 cd3d cab1 8b3d
00000380: 4284 d5bd 0aec 173e d375 d03d 06a0 28ba
00000390: 0873 07bc 071e ef3d ac2e 07bd e9a8 efbd
000003a0: 5d58 c53d 623f ee3d dff3 83bc 6c1d f93d
000003b0: 745a da3d 9ee1 593d 7b01 133e 43bf 3c3e
000003c0: a83a bd3d 79eb 5a3d 4877 8b3c 4648 9b3d
000003d0: 672c 393d 1563 95bd 5f42 b03d ef50 f93a
000003e0: 5e1a eabc 76a5 de3d 7271 203c 83fc ff3d
000003f0: 721b c43c 5e39 e0bc 9fa0 993d a8df c4bc
0.0086578 0.14303659 0.08737618 0.13142078 -0.0026968336 0.023350341 0.15725012 -0.053986117
0.098784976 -0.0008803873 -0.112838194 0.10328749 0.031647712 -0.12441407 0.16338897 -0.015916122
0.03814147 -0.10406349 -0.059853055 -0.14721423 0.02922959 0.06650491 0.05789323 -0.01594155
-0.0154348845 0.07098657 0.13195297 -0.054699395 -0.039704755 -0.05486794 -0.1046496 -0.08771862
0.075737454 0.040966798 -0.06024803 -0.03838607 0.04459208 -0.055884052 -0.061910424 0.03142168
-0.04081768 0.01304087 0.0669544 0.108063534 0.063933805 0.023725228 0.018395262 -0.055804104
-0.14847144 -0.012836568 -0.06456248 -0.13470295 -0.08063291 -0.0366622 -0.07784647 0.06940989
0.08588792 0.0138217285 -0.17330258 0.087075725 -0.0043567433 0.08575177 0.08736916 0.0032325466
0.012094165 0.16270815 -0.03781192 0.15054443 0.051609647 -0.0046637985 -0.0045753466 -0.15154758
0.03855407 0.07243324 0.058725357 0.02101303 -0.0038898105 -0.043131575 0.1309184 0.073243625
-0.016402427 -0.0384273 0.034257766 -0.024385085 -0.18826307 0.16403349 0.017830292 -0.063793644
0.029865904 0.1396114 0.13490075 -0.0039447593 0.16442835 -0.0034915996 0.019940244 0.025726663
-0.049006034 0.041939136 0.001309923 -0.04930538 0.020979224 -0.07882574 0.043595787 0.022497365
-0.06509434 -0.05016773 0.031381626 0.07400046 -0.13675456 -0.13269977 -0.05944189 0.066796504
-0.14890319 -0.029541494 0.063274115 0.056128647 0.14772126 0.0024975154 0.028262254 -0.083999634
0.16691896 0.02420913 3.0142055e-05 -0.15492907 0.025025092 -0.028394694 0.059496045 0.0355162
0.03137632 -0.019943334 0.11013435 0.119497076 -0.032550957 -0.07544143 -0.09315017 -0.11740037
-0.06972826 -0.13278143 -0.028541481 -0.11728768 0.090674035 -0.1350315 -0.047867022 -0.10098464
-0.064603575 0.03566841 0.051525034 0.090861596 -0.05929251 0.04820813 -0.006917907 0.025932562
0.07459264 0.052816153 0.087033845 0.11478082 0.05663233 0.059936855 -0.057035197 -0.058393992
-0.072372444 -0.026946655 0.041168608 -0.1131746 -0.1104947 -0.0074588777 0.058341507 0.042513493
-0.11290501 0.014601242 0.06771925 -0.020479484 0.025384327 -0.08400799 0.0019957589 -0.06385317
-0.045814395 -0.05144176 0.1437211 -0.004196907 -0.0737509 0.014776401 0.108928956 -0.09256683
-0.042947497 -0.064548135 -0.16913782 -0.05388001 -0.013615856 -0.08940524 -0.08616957 -0.11634013
-0.078050576 -0.019945635 0.05802564 0.085298255 0.110518135 0.08562245 -0.1093116 0.013795738
-0.053953663 0.082748964 -0.013210145 0.0018939913 -0.14101145 0.08875338 -0.09859309 0.03195075
-0.11794353 0.10035982 -0.07378451 -0.123119675 0.06100942 0.06684723 0.046428293 0.052256644
0.097268745 -0.14345543 0.06329754 0.059094016 -0.08023597 0.06513998 0.10044747 0.0682102
-0.10425617 0.14836136 0.10178723 -0.0006432537 -0.008267172 0.11675649 -0.033003494 -0.11702139
0.096359946 0.11633183 -0.016107498 0.12163815 0.10661784 0.05319368 0.14356034 0.18432336
0.092397034 0.05344722 0.017024651 0.075821444 0.04520836 -0.07294289 0.08606409 0.0019021312
-0.028577026 0.10871403 0.0097926725 0.12499335 0.023938868 -0.027371105 0.07501339 -0.024032429

lstm.bias_ih_l0 f4 [256]
00000000: 9c8b ecbc 2656 b2bb cace 17bd a485 02be
00000010: 4117 31bd f7d2 d03d 8f84 ca3d 716a 873d
00000020: 9ad7 d4bc c020 363d 05be 943b f5b1 8ebd
00000030: bec5 f93d cd2a 903d 677e 003e ae85 87bd
00000040: fe2c 083d 7769 bc3d 47f8 213c 3720 b53d
00000050: b287 d93d d971 f03b f6d7 0a3e 70d9 5c3d
00000060: 39eb 693c 3ef1 8f3d 946b 193e 4e73 7f3d
00000070: 95b4 c43d 27fb 31bd a4fa 4ebd 3d82 ec3c
00000080: 27bb eb3d 97d8 e03d 0225 3abb a4cf 923c
00000090: c530 983c 214c d2ba 9446 183e 418b c73d
000000a0: b137 c93d eca2 92bc c68f 0a3c 6a24 8dbc
000000b0: 3c69 c33d 26b5 40bc 079e 883d 9c0d 33bd
000000c0: 0a70 b83d c654 f53d c348 dabd 137d c83d
000000d0: 3dcb 503d 692a 463d 7a00 a1bd 98ad 563d
000000e0: 1677 273e b2aa c43d 12db a7bc 846e c43c
000000f0: d849 53bd e2a8 4e3c 1a87 aa3d 1224 903d
00000100: 0a1e 89bd 6da6 f13d 32b6 cc3c 77f3 bbbd
00000110: b034 fdbc 483e 533d 64c4 b6bd 7b12 d33d
00000120: 78d1 0c3e 992b 72bd a372 90bd 9155 79bd
00000130: 13d2 223d 53e5 d0bd de3d 033e 1f99 0c3e
00000140: 86a2 4e3c 65c6 e23d b2bb 023e a025 8f3d
00000150: befc efbb fee0 253d 2625 003e 5a75 cbbc
00000160: 83c5 0d3d 5c41 b9bc 9f02 b23b dfae cb3c
00000170: ba9f 2abd a3fc ccbb 714f ee3d 502c 263c
00000180: 466c 883c 05cc 173e 614e 9b3d a35d 6dbd
00000190: ec99 2cbb f8ab 35bc 06e6 f8bc 536f b8bd
000001a0: acdb 2b3d 4eb8 003e 5ae9 b0bd 38bf 2c3e
000001b0: caf9 6d3d 4155 0a3e 930b 2cbd 00e9 9a3d
000001c0: ae2b f93d d6c7 e33d 80d2 b0bc df8f d93d
000001d0: fced bf3d 52b3 c6bd 17b1 693d aa14 b1bd
000001e0: 617a 083e 0220 bebb 4cb5 2dbd bf4d 363d
000001f0: 5c6c 17bd 215f cfbd 80f5 b03d 4933 ac3d
00000200: 7e4e 9d3d 86f9 173e bc3c b43d a10f 413c
00000210: 5579 3fbd 5a08 31bd 9d79 be3c b6f4 39bd
00000220: 8ddb 8c3d df4e fdba 0673 3abd c264 05bd
00000230: 36e6 0d3e 3b8a afbd cce0 c83d 5187 193e
00000240: dd8d febd 3181 8c3d 9568 97bb fc04 ecbd
00000250: 1d99 8bbd 6f62 9bbb c080 17be 72f7 a3bd
00000260: 4861 163e 04e0 1b3e cd1a acbc 0451 5dbd
00000270: 0bb8 f3bc 064b 3d3d 50df e4bd 363d 89bd
00000280: 6459 99bd 1922 b4bd ee61 133e c80a 98bd
00000290: 5d6b 02be bf4b 20be 00ee d3bd 3067 eb3d
000002a0: f4a6 6e3c cc18 eebc 86d7 063e 63fe f03d
000002b0: ed8f 093c 6e4e b1bc 381a b5bd 4848 24be
000002c0: 9b97 c4bc 0c5a 173e 8772 063e 4ef1 41bd
000002d0: 153f e73c f73d 023e f741 d4bd 8bb3 d63d
000002e0: 23f9 233e c14e 273d dd5c 103d 5b66 65bc
000002f0: c661 0d3c cbbf acbd 401c 5c3c e8f8 d1bd
00000300: 9e6c 7f3d 8a54 0b3d 1eaa f13d e738 653d
00000310: 47cc b63d 78bb 59bd 336d a53c ff84 1f3e
00000320: 1923 8c3d 01e6 97bd 4de1 2abd 9fe7 cb3d
00000330: 315e e03d 84a4 333d 0420 c53c 5019 d93d
00000340: 70b9 573d ec03 703d 8f46 843d 90c1 3ebd
00000350: 0831 9abc 3613 1b3e 9730 f0bc edb6 5fbd
00000360: aafe 9cbd 1649 0f3e 1b16 cc3d d0be c73c
00000370: 95b7 ef3d f2de ddbd 4f7e e1bd 4b71 f03d
00000380: a65d 133e c542 cf3d 6a79 2e3d 9bfe db3d
00000390: 2ad6 1bbd 3e67 0c3e 63ad 183e e12e 48bd
000003a0: a61b 013c 71b1 d53d f1e6 243e 32a2 443d
000003b0: 4db4 9a3d a252 abbd 2c7b be3d 1e7a a73d
000003c0: 23fd c33d d684 e53d 36d0 193d 3602 d63d
000003d0: b7f6 003e 8b9a 163d 13e8 903d 1c81 103e
000003e0: 49b0 fe3d 67e7 ae3c bd4c 3fbd 23f7 9e3d
000003f0: 1893 443d 50eb c13d ecaf a3bc c6d7 39bb
-0.028875165 -0.0054423986 -0.037062444 -0.12746292 -0.043235067 0.10196488 0.09888565 0.06612099
-0.025981713 0.044464827 0.0045392537 -0.06967536 0.121959195 0.070394136 0.12548219 -0.06617294
0.033246033 0.09199803 0.009885854 0.08844035 0.10621585 0.0073377904 0.13558945 0.053918302
0.014277273 0.07028435 0.14982444 0.062365822 0.09604756 -0.04345241 -0.050532 0.028870696
0.11510306 0.10978811 -0.0028403406 0.017921276 0.018577943 -0.0016044417 0.14870673 0.097433574
0.098250754 -0.017899953 0.00845713 -0.017229278 0.09541556 -0.011761939 0.06670766 -0.04371415
0.09005745 0.1197906 -0.106584094 0.09789481 0.050975073 0.04838029 -0.07861419 0.052411646
0.16354021 0.0960287 -0.020490203 0.02397848 -0.051584095 0.012613507 0.0832655 0.0703813
-0.066951826 0.11799321 0.024989221 -0.091772966 -0.030908912 0.051573068 -0.08924177 0.10306259
0.13751781 -0.05912361 -0.07053115 -0.060872618 0.039751124 -0.1019999 0.12816569 0.13730286
0.012611991 0.11072997 0.12766913 0.06989598 -0.0073238304 0.040497772 0.12514171 -0.024836231
0.03461219 -0.022614174 0.0054324414 0.024863658 -0.041656233 -0.0062557026 0.11636246 0.010142401
0.016653191 0.14823921 0.07583309 -0.057950627 -0.0026336862 -0.011088364 -0.030383121 -0.090056084
0.041957542 0.12570307 -0.08638258 0.16869819 0.058099546 0.13509084 -0.042003226 0.075639725
0.12166534 0.111221 -0.02158475 0.10623144 0.09371564 -0.097021714 0.05705365 -0.086465195
0.13327934 -0.0058021555 -0.042409226 0.04450774 -0.036968574 -0.10125566 0.086405754 0.08408219
0.07680987 0.1484128 0.08800647 0.011783511 -0.04674657 -0.043220855 0.02325135 -0.04539939
0.068778135 -0.0019325874 -0.04551985 -0.032566793 0.1385735 -0.08571287 0.098085016 0.14993025
-0.12429402 0.06860579 -0.0046206214 -0.11524388 -0.068163134 -0.004741959 -0.14795208 -0.08006181
0.14685547 0.15222174 -0.021008873 -0.05403234 -0.029750844 0.046214126 -0.11175406 -0.06701128
-0.07487753 -0.08795566 0.14392826 -0.07423931 -0.12736268 -0.15653895 -0.10348129 0.11494291
0.014566172 -0.029064558 0.13168153 0.117672704 0.008396131 -0.021643844 -0.088428915 -0.16043198
-0.023998072 0.14780444 0.13129626 -0.047349267 0.028228322 0.1271895 -0.10364144 0.10483464
0.16013007 0.04084659 0.03524481 -0.014001454 0.008629268 -0.08435019 0.01343447 -0.10252553
0.062359445 0.03401617 0.118000254 0.05596247 0.089256816 -0.0531573 0.020193672 0.15578078
0.06842632 -0.07416917 -0.04171877 0.099562876 0.109554656 0.043858066 0.024063118 0.10600531
0.05266708 0.05859749 0.064587705 -0.046571314 -0.018822208 0.15144047 -0.029320044 -0.05461781
-0.07665761 0.13992724 0.09965154 0.024382979 0.11704937 -0.10833539 -0.110104196 0.11740359
0.14391193 0.10120157 0.04259626 0.107419215 -0.03804604 0.13711259 0.14909892 -0.048872832
0.007880127 0.10434235 0.16103722 0.048006244 0.07553921 -0.0836537 0.09300837 0.08177589
0.09569766 0.11206977 0.03755208 0.104496405 0.12594114 0.036768477 0.07075515 0.14111751
0.124359675 0.021350576 -0.046704043 0.07761981 0.047991842 0.094687104 -0.019981347 -0.002835737

lstm.bias_hh_l0 f4 [256]
00000000: 88fe 97bd 9780 30bc 92e1 f83d 3592 adbd
00000010: 8728 3bbd fe58 863b 0dd5 cb3c 9eaf fc3d
00000020: 090e 91bd b813 4c3d 9826 4fbd 71dd c23d
00000030: 431c ae3d d076 5dbc ab0f db3d 413e 0d3e
00000040: 268f 6bbd 993d b2bd 7277 b53d fd59 93bd
00000050: f8ef 743d 5698 a23d f6d4 b33d 5f96 ad3d
00000060: 7370 1ebd ad95 063d ee36 95bc 7480 023e
00000070: 9f26 943d 8d19 1a3e cd48 d93d 52c2 d93d
00000080: 554c fb3d a75b 1f3d 02e5 7ebd 1bd0 62bc
00000090: aa02 5cbc 0ccc ef3a 72b6 a0bc 7f91 b3bd
000000a0: b671 233d eef9 60bd c967 90bd 5bb5 003e
000000b0: e8c1 eabd 7148 803d 1dcf 8e3d 5e9c d73d
000000c0: 6ce6 2b3e 8a69 e73d 1335 a9bd f07c 23bc
000000d0: 9c46 ae3d d436 e0bd ffc8 b8bd f3c2 bbbd
000000e0: 6646 55bd 1be4 8a3d 91f7 bfba 48f6 8a3d
000000f0: a0b9 05bd cc8e 8dbd e6b5 ae3b deae 0b3e
00000100: 793d 6d3d 0124 38bd 4f02 ef3d b245 243b
00000110: c146 ff3d ff2a 73bd ae59 b8bd e44b 4c3d
00000120: e6d5 57bd d324 5abd 442a 6e3d f591 a53d
00000130: 6718 e2bc de4e a8bc 7d83 bbbc 167b f63d
00000140: a336 6c3d 3969 7b3c f3ad 74bc 6803 7ebc
00000150: da73 4c3d 1c40 993d 7c79 30bc 9907 d0bc
00000160: 86b2 78bd 057e da3d 59c7 b5bc eb82 1f3e
00000170: 3f40 293c 4884 823b b609 2fbd 5f8a 403d
00000180: 0fa4 ee3c c0ae 933d 413e e2bc 7944 0d3e
00000190: d65f 7b3d 7702 853c 0317 3dbd e373 363d
000001a0: 8d93 dabc 8349 2b3c 5af6 cfbd 4bc2 bb3d
000001b0: ccde 733c d658 d13d 531b 5fbc a84e e93d
000001c0: 284d 063e d333 8f3d 21d4 e03d 1527 c3bd
000001d0: 1cd7 e23d b9f1 68bd 7063 103d ce2c 843d
000001e0: 5d49 523d 214b ff3c 854e b33d 8902 dd3d
000001f0: d0f3 5dbd 91a2 873d 92f7 ce3c 3630 173d
00000200: 8c96 053d ce0c 443c ce76 a43c 304b 5f3b
00000210: cb81 e7bd 0096 a13d e86a a93d b796 1ebe
00000220: dfbb d33d 8467 03be 8b3e 88bc 77ee 143e
00000230: e674 c33c 7197 433d ea74 d73d 669d 333d
00000240: 29c1 05be ce27 0b3e 2ca8 b4bd 00dc f4bd
00000250: 57f8 9ebd 704a 1f3e 3539 6ebd ac7f 833c
00000260: fd2c 3c3d 4717 dabc e7ca 913d fe8f ac3d
00000270: 322d 0c3e d4c7 1bbd bbf6 1b3b 4b2d 4f3d
00000280: c462 a5bd 9cd9 7bbd 977f d03d 8a75 fa3d
00000290: e480 54bc 9ded 86bd 7cc3 1dbe a77a 193d
000002a0: 8a42 afbd 6452 43bd 02d1 013d 2795 a23d
000002b0: 7ce0 b03d 9bea 17bd 2dcb 9dbc 1fc3 c3bd
000002c0: b971 0cbe a818 92bd c6f5 893d 3635 93bc
000002d0: 6f21 113e 5eb7 a03d e18c d23c 93ec 37bd
000002e0: b7e3 fe3d 7502 16be d9b9 97bc b865 cb3c
000002f0: 18e1 20be c39c 9d3d c534 2b3a f28f ad3d
00000300: 4eda cf3c 9ea3 f5bb 53ff 893d e016 90bd
00000310: 4805 6abd 6a87 f4bb eda4 c93d 2e3a b33d
00000320: 2107 ec3d b0a0 fabb 0c46 213c 8b69 58bc
00000330: 720b 263e 3a30 123d ddd5 6ebd f045 723d
00000340: e13a 8ebd 70be 803d 2126 753d a503 16bd
00000350: f805 32bd aeb0 6e3d b109 3ebd 3e33 223e
00000360: 6a27 dbbc 34ee 443c b4ad 0f3e 28b4 4fbd
00000370: 8d40 e33c 4021 ecbd 7819 3a3d 998f 223e
00000380: bf3f afbd 543a 293e b615 eb3d 2f78 4a3d
00000390: 0bd8 4b3c ea56 853c 386a 243e d1ab e03d
000003a0: 7691 54bd 36fd 8abd 09a3 203e ba7a dc3b
000003b0: 74c1 9dbd 6a08 93bd ed11 c83d 980f 0e3d
000003c0: 4817 303e 8525 44bc 0861 573d 8695 2bbd
000003d0: 5f15 6fbd ec8c 19be 913d f2bb 98e7 3e3d
000003e0: 629b a23d 8c8b 0b3e b0fa cf3d 57ad bf3c
000003f0: 1759 d63d f9fc 0abe ce45 0b3e dabc e6bd
-0.07421595 -0.010772846 0.12152399 -0.084751524 -0.045692947 0.004099964 0.024881864 0.12338184
-0.07082755 0.049823493 -0.050573915 0.09514893 0.08501484 -0.013517097 0.10696348 0.13793279
-0.057509564 -0.08703155 0.08860673 -0.07194898 0.059799165 0.07939212 0.087808535 0.08475947
-0.03868146 0.032857586 -0.01821467 0.12744313 0.07233929 0.1504881 0.10609589 0.10632767
0.122704186 0.038905766 -0.062230118 -0.0138435615 -0.01342837 0.0018295064 -0.019618247 -0.087679856
0.039903365 -0.05492585 -0.070510454 0.12569182 -0.11462766 0.06263817 0.069730975 0.105278715
0.16787118 0.11299427 -0.08262076 -0.009978518 0.085095614 -0.10947958 -0.09022712 -0.09168043
-0.05206909 0.06781789 -0.0014645924 0.06785256 -0.03264773 -0.06912002 0.0053317426 0.13640925
0.057919953 -0.04495621 0.11670362 0.0025065956 0.12464667 -0.059367176 -0.0900148 0.049877062
-0.052694224 -0.053257775 0.058145776 0.0808448 -0.027599527 -0.02054542 -0.022889847 0.120351955
0.057669293 0.015344911 -0.014934051 -0.015503742 0.049915172 0.07482931 -0.010771152 -0.025394248
-0.06071713 0.106685676 -0.022189783 0.15577285 0.010330259 0.0039830543 -0.04273387 0.04700696
0.029130964 0.07211065 -0.027617576 0.13795651 0.061370693 0.016236527 -0.046164524 0.044544112
-0.026681686 0.010454538 -0.1015441 0.09167918 0.014884662 0.10222022 -0.013617354 0.113919556
0.1311537 0.069923066 0.109779604 -0.09528939 0.11076185 -0.05687115 0.03525108 0.06453858
0.051339496 0.031163754 0.08755211 0.10791499 -0.054187596 0.06622804 0.025264535 0.036911212
0.032614276 0.0119659435 0.020076182 0.0034071915 -0.11304053 0.07889938 0.08272344 -0.1548718
0.10338568 -0.12832457 -0.016631385 0.14544092 0.023859452 0.047751848 0.105203465 0.04385128
-0.13061966 0.13589403 -0.08821139 -0.11956024 -0.07762211 0.1555574 -0.058160026 0.01605209
0.04594134 -0.026622428 0.07118779 0.08425902 0.13689116 -0.038032368 0.0023798186 0.050580304
-0.08075479 -0.061486825 0.10180586 0.1222945 -0.012970183 -0.0658829 -0.15406603 0.037470486
-0.08557613 -0.047685996 0.031693466 0.07938605 0.08636567 -0.03708897 -0.01926192 -0.09558701
-0.13715257 -0.07133609 0.06736331 -0.017969709 0.1417291 0.078474745 0.025701942 -0.04490335
0.12445777 -0.14649375 -0.018521236 0.024828777 -0.15710866 0.076959155 0.00065309956 0.08474721
0.02537265 -0.0074963113 0.06738152 -0.07035613 -0.057133943 -0.0074624317 0.0984591 0.08751331
0.11524797 -0.00764855 0.009843361 -0.013208757 0.16215304 0.035690524 -0.058309425 0.05914873
-0.06944824 0.06286323 0.059850816 -0.03662457 -0.043462723 0.058273964 -0.04639596 0.1583986
-0.026752193 0.012019683 0.14031106 -0.05070892 0.027740741 -0.115297794 0.045434445 0.1587509
-0.085570805 0.16526157 0.114787504 0.049431022 0.012441645 0.016276795 0.16056144 0.109702714
-0.051896535 -0.067865774 0.15687193 0.0067284973 -0.07702914 -0.07179339 0.09769044 0.03468284
0.17196381 -0.011971836 0.05258277 -0.041890644 -0.05836999 -0.14995164 -0.007392593 0.046607584
0.07939793 0.13627452 0.10155237 0.023398085 0.10466211 -0.13573064 0.13600847 -0.11266489

lstm.weight_ih_l1 f4 [256, 64]
00000000: b0c0 ac3d 8953 5ebd adac f83d 51e1 633d
00000010: c71e 5d3d 36ef 633d b293 d3bb ecf4 3bbc
00000020: 1086 2c3d 22a0 a8bb 0e91 943d c900 113e
00000030: 27d7 913c 98a1 e4bd 7070 a73d 8624 1e3e
00000040: f87a fa3d d646 2cbc d77f 90bc 7537 4d3d
00000050: e680 77bd ded0 833d 3197 e2bd ba1c 543d
00000060: 6e36 cbbc cc7f ba3d 47ef fbbc b1ad b6bd
00000070: 8003 b23d a82d d3bb 1b92 bbbc 348a 123e
00000080: 6f32 0a3e 5073 cabd 92aa 9fb9 e5b5 82bd
00000090: e1fc edbd 1681 46be c512 8cbd b369 3cbd
000000a0: ea67 183c 3456 c5bc 7d37 0d3e 5ab2 1ebd
000000b0: da73 2a3d d8f9 3fbe 72c6 29bd c9ec dcbc
000000c0: 6ffb 983c be1b dc3d 7cba 9b3d 2754 533d
000000d0: 4558 153d f54b e53d 0237 c23d 2727 933d
000000e0: b5c0 b6bd cf48 a03d 324b 863c b899 c73d
000000f0: e00a b43d 930f aebb 48f8 5f3d 978d dc3d
00000100: f47f eb3d 02af 243e 29bc b4bd 7aa0 ae3d
00000110: c43e af3d 4709 b2bd d929 a2bd 8c9f 0a3d
00000120: f2b1 6f3c 6386 873d 6a3f 973d 9170 f13d
00000130: 6d76 9bbd 4158 82bd 694a b1bd 3e44 e33c
00000140: d8a5 8b3d 8b43 9fbd 6efc 683d 3015 f8bd
00000150: a5c2 823d 6b07 b4bd 58b1 fdbd 857f b8bd
00000160: be8f 693d a3bc c5bd 5d95 183d bdd6 1cbe
00000170: 04dd ae3c d103 7abd 91e6 57bc 6ea1 a6bd
00000180: 2c5f d83d 3207 bd3d d9fe c0bd f4bb ce3b
00000190: 2022 0abe f6e3 03be 2e35 61bd 38f0 993d
000001a0: 7c2e 02be c9dd c43d d708 f43d 9d1d 5e3d
000001b0: b6d3 7f3d 3f7f ddbb 1670 053d e650 1f3d
000001c0: 446f 08be 7905 8e3d 8de1 893c bc97 0ebe
000001d0: 084f f23d f0b9 febc f1a1 063d b1e8 a8bd
000001e0: c1de d93d deeb 63bc ebc2 7cbd 118d b0bd
000001f0: 173b aa3b 31bb cbbd 46df a63d d202 04be
00000200: 84e3 20be fbaa 38bd a535 e0bd 0396 bd3d
00000210: 1d3d 50bd cdaf a53c f5dc f53d f1e2 033e
00000220: 1e78 a4bd fc19 a93d 064d 9ebd 3905 7539
00000230: b1ef 293d 73b9 11bd a5ce 41be 3e95 23ba
00000240: 5e86 b03d 4665 d73c 4d69 643d c955 e13b
00000250: c2a8 003c 4128 083d ef1f a9bc 083f a13d
00000260: 1aae 273c 6bf3 663d 5eed 8abd b747 c23c
00000270: 5861 21be 62c4 223e 3d4d 11bc 128c 19bc
00000280: efaa c939 6e75 bb3d 3b4f a33b 4a2f cdbd
00000290: 9ebd d43d 462e b1bb cbc1 2ebd cedc 163d
000002a0: 08be 3dbb db01 c4bd ca27 e6bc 3efe 28be
000002b0: d1d0 5abc 497f a8bc c152 5b3d 6875 f33c
000002c0: 53c6 573d 6310 b13d 6047 a4bd a564 1e3e
000002d0: 6943 17be 4483 13be 9d6a 2bbe d44b 5bbc
000002e0: ac0f 41be 6ed0 cf3d 5f2e 123e 7470 64bd
000002f0: 3073 95bd 5357 133c f1f2 853d 4558 503d
00000300: 3daf 1dbb 10e4 193e 37b1 bc3d 5903 c63d
00000310: 3991 f4bd f1a6 0cbd b2b9 223d c207 3abd
00000320: 17bc cd3c 16ed 0d3d ce6a f93b e310 94bd
00000330: a7e7 54bd e710 98bc 52a9 86bd 89a5 d03d
00000340: cb44 693d 78fe 893d ae4f 9cbd 3b9e 873d
00000350: f6c5 0d3c 2761 203d 0c81 efbc 59f9 bc3c
00000360: d503 823d 57ec 8a3d 0e80 113d 6065 d13d
00000370: 50fa 353d fbf0 813d ae4f 023e 50f8 64bd
00000380: 42fa 6b3c 0dad 02be 1634 01bd d52b c93d
00000390: eb35 0bbe a0b7 b23d fecc c23d 2865 a4bd
000003a0: 848e e9bd 9a5a 75bd 5b0e 71bd 48bf bd3d
000003b0: c989 b7bd 3b22 e1bc ca2a 85bc 21a1 4dbd
000003c0: 5e28 ddbd fe19 8d3d 4f57 973d 7a08 333c
000003d0: 0d1f 193c b203 42bc 411e d6bc 309b ca3c
000003e0: 4d5a 633d 6d72 b4bd 6039 d9bd 7fb8 b43d
000003f0: 133b be3d b41e d0bd 6ea0 38bd 2408 aabc
0.0843519 -0.054278884 0.1214231 0.0556348 0.05398443 0.05564805 -0.0064568156 -0.011471968
0.04212004 -0.0051460424 0.072542295 0.14160456 0.017802788 -0.11163634 0.081757426 0.1544362
0.12230486 -0.0105149355 -0.017639084 0.050101716 -0.06042566 0.06436323 -0.11063994 0.05178521
-0.024806228 0.091064066 -0.030753745 -0.08919848 0.08692074 -0.0064446516 -0.022896817 0.14310533
0.13495801 -0.09885275 -0.00030453928 -0.0638235 -0.116204984 -0.1938518 -0.068395175 -0.04599924
0.009302119 -0.024088956 0.13790698 -0.038744308 0.04161439 -0.18747652 -0.041449018 -0.026968377
0.01867458 0.10747479 0.076039284 0.051593926 0.036461134 0.11196128 0.09483148 0.07185202
-0.08923475 0.07826387 0.016393278 0.097461164 0.08791137 -0.005311915 0.05468014 0.107691936
0.114990145 0.16082385 -0.08824951 0.08526702 0.085568935 -0.08693176 -0.07918138 0.033843562
0.014629828 0.06617429 0.07385142 0.117890485 -0.07590947 -0.06364489 -0.08656771 0.027742501
0.068187416 -0.07776555 0.05688136 -0.12113416 0.06384782 -0.08790477 -0.12387341 -0.090086974
0.05702185 -0.0965512 0.03725182 -0.15316291 0.021345623 -0.061038796 -0.01317753 -0.08136259
0.105650276 0.09229888 -0.09423608 0.006309027 -0.1348958 -0.12879929 -0.054982357 0.07516521
-0.12713045 0.09612615 0.119157486 0.05422746 0.062457763 -0.0067595537 0.032577597 0.03889551
-0.13323694 0.069346376 0.016831184 -0.1392507 0.1183148 -0.031094521 0.032869283 -0.08247507
0.1063819 -0.013911216 -0.061709326 -0.08620656 0.0051950323 -0.09947813 0.08148055 -0.12891701
-0.1571179 -0.045084935 -0.10947732 0.09257128 -0.050839532 0.02022543 0.12005035 0.1287954
-0.08030723 0.08256909 -0.07729535 0.00023366966 0.041488353 -0.03557725 -0.18926485 -0.00062401954
0.086193785 0.026293408 0.055764485 0.0068766815 0.007852735 0.033241514 -0.02064511 0.078733504
0.01023438 0.056384485 -0.067835554 0.023715837 -0.1575979 0.15895227 -0.008868513 -0.009371774
0.00038465063 0.09153257 0.0049838102 -0.10018785 0.10387729 -0.0054071276 -0.042665284 0.03683167
-0.0028952379 -0.095706664 -0.028095145 -0.16503236 -0.01335545 -0.020568507 0.053545717 0.02971907
0.05267937 0.08645704 -0.08021426 0.1546808 -0.14771809 -0.14405543 -0.16739888 -0.013384778
-0.18853635 0.10147177 0.14275502 -0.055771306 -0.07297361 0.008992988 0.06540478 0.05086543
-0.002406075 0.15028405 0.092134885 0.09668607 -0.119417615 -0.034338895 0.039727874 -0.045417555
0.025114102 0.03464993 0.007611609 -0.072297834 -0.051978733 -0.018562747 -0.06575264 0.10187823
0.05695037 0.06737989 -0.07632385 0.06621977 0.008653155 0.03915515 -0.029236339 0.023068117
0.06348387 0.067833595 0.035522513 0.10224414 0.04442817 0.063447915 0.12725708 -0.05590087
0.014402928 -0.12761326 -0.031543814 0.098228134 -0.13594787 0.0872643 0.095117554 -0.080271065
-0.11404136 -0.059900858 -0.05885158 0.09265 -0.08961827 -0.027482143 -0.016255755 -0.050202493
-0.10798715 0.06889723 0.073897 0.010927314 0.009345782 -0.011841701 -0.026137473 0.024732202
0.05550604 -0.088108875 -0.106066465 0.08824252 0.09288611 -0.10162106 -0.045074873 -0.020755835

lstm.weight_hh_l1 f4 [256, 64]
00000000: e2f6 c4bc ce03 86bd efc9 0f3e 9a06 e0bd
00000010: 0bce d43d 4d96 b6bd 8042 06be b5f1 923d
00000020: 2ce4 e2bc c7d4 9cbc a2c5 8ebd 50b6 303d
00000030: 112d 8a3d 9e6d 213e e5d9 a1bd b9f3 26bd
00000040: 33c6 cabd 84ef 163d 61d2 27be 03a1 26be
00000050: 3e0c 103e a7de 2cbe 775c 61bc 27c7 1dbe
00000060: 43fa 053b ff71 95bd 1cfb 213e 37fd 21bd
00000070: 542c b83c 9c40 fd3d 74d2 2dbe d1bb 0b3e
00000080: 4722 563d bb26 223e 9f12 8aba 8332 8d3c
00000090: 49eb 29be 114a cc3c 5bc9 c3bd f41e 8dbd
000000a0: 23e7 51bd 50a5 043d f03b 87bd 1a51 4cbe
000000b0: ca7a 10be 74d8 433d 8c06 e0bc fcb2 8e3d
000000c0: 6948 02bc 5e57 9ebc db5a 203e 7bec 8dbd
000000d0: c21b 003e 9db1 e1bd c967 1dbe 2802 81bd
000000e0: 23c4 7abd 7f55 36bd 7c84 c73c efa6 27bd
000000f0: a1f8 fe3d 0dcb 483c a4a1 e23d 7308 36bd
00000100: 9532 953d 0a96 ac3d b906 d7bb 81ac 33bc
00000110: 0313 79bc e61b db3c 661d b53d 6652 2d3d
00000120: 48d3 c3bd 59cf 3dbd ac53 59bd 4493 943d
00000130: b740 d2bd 2bc5 bcbd 5f82 773c c64d 68bc
00000140: f305 9b3d 4223 cfbd 8af1 a63d afb7 5dbd
00000150: fea3 14bd d6d9 a63d b0d6 963d 296f 0abd
00000160: 3193 8bbd 3df3 81bd c4c7 87bd 8d90 973d
00000170: 282a 0cbe 50c6 f73d 7a6d d6bd c824 083e
00000180: 22c9 de3c 3da8 fdbc 760e 0abe efb1 513d
00000190: 2a53 3b3d b9ee a03d 4a6e a5bd 44f2 92bd
000001a0: 15a0 a53c df88 babd d3c4 1c3d ea01 103b
000001b0: d2da ddbd 583c babb c653 c83d 2d0f d7bd
000001c0: 4ad2 453d 0e2d 82bd 6f35 6ebd d7bf 8fbd
000001d0: 03ce 1a3d 3bfe b63c a0ee ca3b 55d7 943d
000001e0: 75ce 34bd f805 3cbc e008 adbd cbd7 d43d
000001f0: e68f 87bd 9cfd 82bd 9469 63bd 24ec f0bd
00000200: 7b29 a739 3558 9fbd 6a2f 09bd 5530 1cbe
00000210: a4b5 87bd b432 b3bd 6ebc cb3d 3938 52bd
00000220: 8d60 4cbd cd40 d8bc 97d0 10be bb86 e43d
00000230: 0520 413d 6d2c 4bbd 8d3f a8bc 07d9 08bd
00000240: 46ef e9bd a17f 0dbe a117 693d 5352 a13d
00000250: bdc0 c2bd a628 863d 486f 873d 6ce9 afbc
00000260: c958 ccbd ba4d 663d fee5 e73d 6e44 30bd
00000270: d78a 033e b2b2 dbbb 7954 f1bd 396b f03d
00000280: 74d1 96bc 0680 703d 5e33 c6bd b275 a23c
00000290: 783a c33d 5285 d53d a853 0fbd a1f6 46bd
000002a0: dde6 b8ba f7bb 803d b19f e4bd 3630 0fbd
000002b0: 7817 0cbe d955 283e a227 b93d af33 a33a
000002c0: e5a0 ebbd 8020 c53d b01d 9abc d18e 143e
000002d0: 1add e53c 0ff0 8ebd dbdb d9bd 388a e93c
000002e0: b273 7e3d 73b7 353d 38f7 aebc 5285 173e
000002f0: 0633 33bd 8a3f 49bd 1acf 303c 4848 173d
00000300: 8043 b43d 85e6 37bd 4033 3f3e 5ad8 403d
00000310: 8d6c 203e a9f4 083d 7496 0cbe 3c49 43be
00000320: 9ce6 493d 1985 f1bd a208 1fbe c01b e43d
00000330: 5c4f d73d f4db 893d f6fb 1d3d 8435 ef3b
00000340: 9e73 85bd 68be dfbc 3fff 01be fa88 11be
00000350: 4a6a 2d3d deee 703d bdfa f4bd 426d 7abd
00000360: 1fda 11be c8ad 153e f809 f13d e9ff 133e
00000370: d0a6 1abe 59b0 abbd 7430 13be 490d 41bd
00000380: 853d 85bd 7614 bfbc 9785 6f3b 6866 303e
00000390: 88b7 4f3b e607 1b3e 3b87 563d 3214 65bb
000003a0: 6573 bbbc c781 e13d 77da 4abc 1f15 74be
000003b0: 5515 29be 2d08 acbd e13c 1abd 08e3 313c
000003c0: 45d8 ba3d 7858 fe3c 4434 2a3e 410c 1dbe
000003d0: 0f22 283e 2190 37bd 6c6d 08be eb9a 123d
000003e0: f47a 0c3d edb4 b4bd 87e0 323e c17e 00bd
000003f0: 1ca9 533d eeee 8a3d 64e1 553c dfb9 973d
-0.024043504 -0.065436944 0.14041875 -0.10938759 0.10390862 -0.08915386 -0.13111305 0.07175008
-0.027696691 -0.019144429 -0.06971289 0.043142617 0.06746877 0.15764472 -0.07902888 -0.040759776
-0.09901085 0.036849514 -0.16388847 -0.16272359 0.1406717 -0.1688181 -0.0137549555 -0.15408002
0.0020443357 -0.07297134 0.15818447 -0.039548125 0.022482075 0.12365839 -0.16974813 0.13645865
0.052278783 0.15835087 -0.0010534114 0.017236 -0.1659366 0.024937661 -0.0955989 -0.068906695
-0.05124582 0.032384217 -0.06603229 -0.19952813 -0.1410934 0.047813848 -0.027346872 0.06967732
-0.007951834 -0.01932877 0.15659659 -0.06929871 0.12510589 -0.11020205 -0.15371622 -0.062992394
-0.061222207 -0.04451513 0.024355166 -0.040930685 0.12449766 0.012255442 0.11065987 -0.04444165
0.072850384 0.08427055 -0.0065620807 -0.010966421 -0.015202287 0.026746701 0.08843498 0.04231491
-0.09561783 -0.04634032 -0.05305831 0.07254651 -0.102662496 -0.09217294 0.0151067665 -0.014178699
0.07569494 -0.10114147 0.08151539 -0.054130252 -0.036289208 0.08147018 0.07365167 -0.033797417
-0.06815184 -0.06345222 -0.06629899 0.07400618 -0.13687956 0.12098372 -0.104701 0.13295281
0.027195517 -0.030964011 -0.13482079 0.05119508 0.04573361 0.07858033 -0.080776766 -0.07175115
0.020217935 -0.09108137 0.038273644 0.0021973797 -0.10832752 -0.005683463 0.097816035 -0.105009414
0.04829625 -0.0635625 -0.058156427 -0.070190124 0.037794124 0.022338023 0.006192997 0.07267634
-0.044142205 -0.011476032 -0.084489584 0.10392722 -0.06619243 -0.063960284 -0.05552061 -0.1176379
0.00031883628 -0.07780496 -0.033492483 -0.15252812 -0.06626442 -0.08749905 0.099480495 -0.05132315
-0.049896766 -0.026398087 -0.1414207 0.1115851 0.047149677 -0.049602915 -0.020538116 -0.0334101
-0.11422591 -0.13818218 0.0569073 0.0787703 -0.09509418 0.06550722 0.06613022 -0.021473609
-0.09977872 0.05622647 0.113231644 -0.04303401 0.12845932 -0.0067046518 -0.1178369 0.11739201
-0.018410422 0.058715843 -0.09677766 0.019831512 0.095326364 0.104258195 -0.03499189 -0.048575047
-0.0014106889 0.062858514 -0.11163271 -0.034958087 -0.13680828 0.16438998 0.090407625 0.0012451316
-0.115052976 0.096253395 -0.018812984 0.14507605 0.028059531 -0.06979381 -0.10637637 0.02850829
0.062122054 0.044364404 -0.021358117 0.14796951 -0.04374983 -0.04913286 0.010791564 0.036934167
0.08801937 -0.044897575 0.18671894 0.04708133 0.15666409 0.03343645 -0.13729268 -0.19070905
0.049292192 -0.117929645 -0.15530637 0.111381054 0.105131835 0.06731406 0.038570367 0.0073000807
-0.06516193 -0.027312472 -0.12695025 -0.14212409 0.042337693 0.05882155 -0.11961887 -0.061139353
-0.14243363 0.14617074 0.117694795 0.1445309 -0.15102696 -0.08383245 -0.14373952 -0.04713181
-0.065058745 -0.023325186 0.0036548132 0.17226565 0.0031695087 0.15139732 0.05237506 -0.0034954664
-0.022882173 0.11011081 -0.012381188 -0.23836182 -0.16512044 -0.08399997 -0.037655715 0.010857351
0.091232814 0.031048045 0.166215 -0.15336706 0.16419242 -0.044815186 -0.13322991 0.035792273
0.034296945 -0.08823571 0.17468463 -0.031370882 0.051674947 0.067838535 0.013054226 0.07408499

lstm.bias_ih_l1 f4 [256]
00000000: b44b 243d 18cc 07bd f0c6 443d e82f 6f3d
00000010: b9dd 073b 7101 acbd f6ab 15bd 4b00 1abd
00000020: 318f ce3d 885f 8dbd 8d66 6a3b 55a3 a73d
00000030: 8c75 5c3c 5caa b83c d517 4a3e 7288 d63d
00000040: ee14 833d 1a81 c3bd 6281 1f3d 0ee3 d43b
00000050: 190f a7bd c074 073e e7d6 593d 0c44 fa3d
00000060: 540c d6ba 6b98 e8bd e438 4f3e fa33 9dbd
00000070: ab9b d23d ce28 f23c 43cb 8f3d afed 7dbc
00000080: a04e b93d ab79 933d 2c75 0abc e7df f73d
00000090: 6111 ffbb 3c0e 8bbb 90b7 523d 3cbd d53d
000000a0: 3eaa 1d3d b00e a03d 5d1a 0dbd 094e bf3d
000000b0: b9fd 8e3d 6f0a fcbb a7c3 173e 5bb0 043d
000000c0: 1c7f 173e 8ae2 afbb 4e77 443d ba60 44bc
000000d0: abbb 6c3d ba10 6b3d a74a 223e 9b95 0b3e
000000e0: 81e1 933d fff9 4ebd 79e8 51bd d2e6 2c3d
000000f0: 2435 4bbd f001 94bd 6b0d ab3d 3b0c 083e
00000100: 5ed4 973c de86 a3bd 78a9 cb3d cf11 d5bd
00000110: 3c33 933c d77d 20bc b848 47bd b4bc e43d
00000120: 9e31 893d 00df e4bc ee38 633d 9946 f5bc
00000130: 2735 b3bd f382 10bd 7deb 5c3d ef6b 7bbc
00000140: b25f e6bd 324a 92bd 629f 15bd 493b 18bd
00000150: 8e67 263d a3f8 dabc 7db0 823d 132b e33d
00000160: c7c6 46ba d9f5 f8bd 784d ddbd baf6 ffbb
00000170: 8ef5 25bc 0889 40bd c75b 65bc 5906 943d
00000180: a8be 2e3d b98f 1f3c 30db babd 9d61 023e
00000190: 8e32 2cbd ca4a 00bd 3a07 a93d d587 87bd
000001a0: fd5c b5bd 8f1c a03d c646 adbc dc4f 3f3d
000001b0: a01e 91bc e93f 203d c8f2 063c 6bfb b63c
000001c0: 5b3c b03d 6671 86bd b360 813d 10b6 c7bc
000001d0: 85d6 45bd 40e9 fe3d 4721 893d 3219 93bd
000001e0: 8bd6 f63d 8031 17bd dcbd fb3d ce08 e7bc
000001f0: bd99 bb3d 672e d73d 9cb1 173e 93dc 76bd
00000200: a52a be3c 1a4d ee3b 4c70 babd 4030 37bd
00000210: ae03 0abc ec0a d0bd c63c 5bbd 6d32 ecbd
00000220: 2bb6 abbd a453 b33b fcf5 d33d 7b3d 033d
00000230: 4324 07bd 79ff 1f3c 3d79 cabd 893a 0e3e
00000240: 4ce4 3ebd 7674 36bb ef87 723d 19c6 f63c
00000250: ff49 f53d 553b a6bd 7928 e5bd 2b2f d3bd
00000260: 6fd3 3b3d d827 e93d a194 b53d 4374 053e
00000270: 95da 01be c973 503d 0980 3cbd 649f 213d
00000280: 7c01 933d 46a7 163e 2dcc 7ebd 0d68 4c3d
00000290: e3a2 88bd a564 1d3e 351e 2b3d 9653 d23d
000002a0: 21aa dcbc f8d4 4b3d 951a b93c 2add 3bbd
000002b0: f718 ecbd e532 89bd ed11 3c3c 5519 ebbc
000002c0: ddc3 ad3d 5452 1c3e 8da1 103d d8b8 edbd
000002d0: 1e35 2b3d af5a aebb cef1 2bbb 9987 0b3d
000002e0: 496e f8bd bc9c 043e 36f3 f03d cceb 563b
000002f0: 8e7e d4bd 5260 0e3e d1bf eebc 3378 0f3d
00000300: 520f 2ebd 2b6e 42bc 5c95 e93d 61be c73d
00000310: 7ee9 f43d 26af 263c 543b 94ba e87a 3f3b
00000320: d028 923a ef8a 0a3e 5021 4d3d 912f afbd
00000330: 4d58 de3d d8ef a33d e4f9 9c3d 42b9 9ebc
00000340: e715 0e3d 109c 233e 446e 003e 3dc5 4dbd
00000350: c5bb 273e 58ff 853d b96b c43c ac06 ad3c
00000360: 1b7e 303e 8f04 113c 52df 933d 3607 84bd
00000370: 2a27 8fbd e4bc 093e 0830 243d 393e b1bc
00000380: edb1 053e 634c b83d b555 ea3d fe96 713c
00000390: 6e29 0b3e 511d 5c3d be8e dd3d d8be 3e3e
000003a0: d7cf 043e 2bde 303e 634c 5e3d c04c c73d
000003b0: 6558 a43d e21e 983c ef81 4c3e 6b84 5bbd
000003c0: a31c 42bd 79ee 263e 41fa 023b bb31 0a3e
000003d0: 0d2c 953d c6bc d43d 4c97 f23c 27ac a93c
000003e0: 46b1 723d 6194 d83d 1434 353e fead b03c
000003f0: afea 213e 4199 b63d 2871 803d 97eb 313d
0.04011126 -0.033153623 0.048041284 0.058395296 0.0020731522 -0.083987124 -0.036540948 -0.037597936
0.10085905 -0.06902987 0.0035766691 0.0818545 0.01345576 0.022542171 0.19735654 0.10475244
0.064004764 -0.095461085 0.03894175 0.0064967936 -0.081571765 0.1322813 0.053183462 0.1222001
-0.0016330578 -0.113571964 0.20236546 -0.07675929 0.102835976 0.029560473 0.07021191 -0.015498563
0.090482 0.07200941 -0.0084507875 0.12103253 -0.007784054 -0.00424364 0.05144459 0.10436484
0.038492434 0.078153014 -0.03444897 0.09341056 0.069819875 -0.0076916735 0.14820729 0.03239475
0.14794582 -0.0053675817 0.04796534 -0.011985952 0.05779616 0.057389 0.1584879 0.13631289
0.07220746 -0.050531384 -0.051247094 0.042212315 -0.049611226 -0.07226932 0.08352169 0.13285916
0.018533882 -0.07984708 0.09944433 -0.10403787 0.017968766 -0.009795628 -0.048653334 0.11168805
0.06698917 -0.027938366 0.055474214 -0.02994089 -0.087503724 -0.035281133 0.053935517 -0.015345558
-0.11248721 -0.07143058 -0.036528952 -0.037165914 0.0406261 -0.026729887 0.06381319 0.110922
-0.0007582721 -0.12156267 -0.108057916 -0.0078113945 -0.010129346 -0.047005683 -0.013998932 0.07227773
0.042662293 0.009738856 -0.09123838 0.12732549 -0.0420404 -0.031321324 0.082533315 -0.06617705
-0.08855627 0.07817947 -0.021151911 0.04670702 -0.017714798 0.03912345 0.0082365945 0.022336682
0.08605262 -0.06564598 0.06317272 -0.024378806 -0.048300285 0.12446833 0.066958 -0.0718254
0.120526396 -0.03691244 0.12292072 -0.02820244 0.091601826 0.105068974 0.14813846 -0.06026895
0.023213694 0.007272375 -0.0910345 -0.04472375 -0.008423729 -0.10158333 -0.053524755 -0.115330555
-0.08384355 0.005472617 0.10349652 0.032041054 -0.032993566 0.009765499 -0.098864056 0.13889517
-0.04660444 -0.0027840412 0.059211668 0.030123757 0.11977004 -0.081167854 -0.1118936 -0.10311731
0.045855936 0.11384553 0.08866239 0.13032632 -0.12681039 0.05089167 -0.04602054 0.039458647
0.071780175 0.14712247 -0.062206436 0.049903918 -0.06671693 0.15370424 0.041776855 0.10269849
-0.026936593 0.04976365 0.022595683 -0.045865215 -0.11528199 -0.066991605 0.011478883 -0.028698603
0.084846236 0.1526578 0.035310317 -0.11607522 0.041798703 -0.005320869 -0.0026236656 0.034064863
-0.1213041 0.12950414 0.11765139 0.0032794354 -0.10375701 0.13903931 -0.0291442 0.03502674
-0.04249508 -0.011867086 0.11405441 0.09753109 0.119585976 0.010173595 -0.0011309185 0.0029217545
0.0011151079 0.13529561 0.050080597 -0.085539944 0.10856686 0.08004731 0.0766485 -0.019375447
0.034688856 0.15977502 0.12542063 -0.05023693 0.16380222 0.065428436 0.023977147 0.021121345
0.17235605 0.0088511845 0.07220329 -0.06446688 -0.06989892 0.13450962 0.04008487 -0.021636115
0.13056155 0.089989446 0.114421286 0.014745472 0.13590023 0.053738896 0.108182415 0.18627489
0.1296991 0.1727225 0.054272067 0.09731436 0.080246724 0.018569414 0.1997144 -0.05359308
-0.04739059 0.16301908 0.0019985589 0.13495533 0.07283793 0.10387568 0.02961316 0.020711971
0.059251092 0.10575176 0.17695647 0.021567341 0.15812181 0.089159496 0.06271583 0.043437567

lstm.bias_hh_l1 f4 [256]
00000000: d2e0 97bd 6333 a7bc 5f12 8a3d e0a6 873c
00000010: c632 3abd 4c3e 203c 990a bbbd 8588 e23d
00000020: 9dbf d13d 4e3b 86bd f7fb 84bc 3883 473d
00000030: 7efb d33d bf89 f5bc 242f a13c 48d7 033e
00000040: 1809 3c3d 390d 543d aa80 1d3e 3a3d 1d3c
00000050: 5511 ef3d 28ef bfbd ccb0 2abd 46ac a9bc
00000060: 9b69 2bbc 050b 5f3d a992 773d b992 a63b
00000070: db14 983d 9256 1e3e 045c b0bd b498 a23d
00000080: 74df dd3d a536 d63d 5ae9 083d dd4a aabd
00000090: 7195 96bd 9b1d e4bc 28f7 e83d af5d 093e
000000a0: cc04 52bd e461 babd 3292 e13d b6e8 9c3d
000000b0: c67b 023e 2bdd b33d 451c cbbc 0a14 dd3d
000000c0: 86e3 bf3d c013 06bd 4086 723d 15ca 3abd
000000d0: 2775 753d dd40 57bd c93e 36bd dfeb 12bc
000000e0: c386 3a3d c421 003e cad1 90bd 6ab1 c5bc
000000f0: 8ced 5fbc 06ac 2b3e a37e 0e3e 076a b0bc
00000100: 3ec1 01bc 001e bbbd 40eb bebd 6662 843d
00000110: 7267 4c3d c85c 10be 65b6 973c 38f6 67bd
00000120: 488e fc3c 9001 013e 9bc6 9e3b 4adc b9bd
00000130: 3809 94bd a1e9 cf3c 9ae1 35bd c47c 9abc
00000140: 1615 bfbd 70d1 c5bc 71bf f73d 22c5 163d
00000150: dfc7 87bd 5a0d debd a117 ee3d 5d90 d2bd
00000160: 3195 bc3c 1c5c 213d 4acf cbbc 5c9e f23d
00000170: 882b d33d 51a9 053e 414a 02be 4e5c 1ebd
00000180: f095 d13d c615 4f3c 203e 8e3d 5386 1a3c
00000190: 3937 09bb 329d 1bbd 9612 0b3d f74c 58bc
000001a0: cc84 f3bc 6db7 b43d 0248 f33d 3de3 a93c
000001b0: a4b8 a53d 8280 703d fa66 2cbd 91f6 83bd
000001c0: 211d d1bc b460 a6bd ca24 f23d 8fe2 053d
000001d0: 085c 9bbd 365f 0e3e 836c 76bc 2aa3 c73c
000001e0: ef16 d2bc ae66 863d 0c39 bbbc 9722 133b
000001f0: 4161 ebbd 6e6e 07bd d96a 113e ced2 edbc
00000200: da62 89bd 397e a0bd d5f7 073b 0f8a e93d
00000210: 8ced 4c3d 474c 38bd bcb3 97bd c5f5 be3d
00000220: a47e 8c3b b7db 49bc a18b 1d3c 8ef1 343d
00000230: 4db9 eabd 43e0 c1bd 588f 873c 400c b73d
00000240: 6bf7 13bc 3b34 653d 9df2 afbd 07b9 dfbd
00000250: 6281 0abd 4b01 b6bd 6926 ae3d 0565 c13d
00000260: 12b9 abbd 473d 303d c3d9 45bd c2da 1e3e
00000270: d30a d7bd 7719 1e3e 5cc8 393d 9cfa 603d
00000280: 7bb3 9ebd f135 083e 5218 1d3d e6a2 063e
00000290: d800 f8bd 34df 9abd 4787 e3bc f0f8 403c
000002a0: 9147 05be 96eb 853b be91 01bd b935 9d3d
000002b0: f994 a93d 069f af3b bcb4 163e b166 15be
000002c0: 1ee2 0bbd 964a 0ebd 8dbc 24bd 52e2 afbd
000002d0: 1997 d53c 7373 dcbc ba45 33bd 9cdb dfbc
000002e0: c9fb 9e3d a151 b7bc c4a6 a43d 980b 99bd
000002f0: 4317 6c3d ef03 3a3d b482 d23c d91b c8bc
00000300: f3c9 9b3d af12 df3d a678 d63d 37b3 77bd
00000310: ea33 203e 714c 7f3d 5e95 493d 71cc 993d
00000320: bf00 f53d 8151 ce3c 3b29 003e 2552 97bd
00000330: 71e6 c93b d872 843d 2311 08bd 6bf4 493e
00000340: da6e bb3d 0a35 653c 1a33 49bc f418 683d
00000350: 749a 423e 28d1 85bd f6e9 f63c 6b4e 3e3e
00000360: 390f 1a3e 84f0 ef3d 7248 013d 11b1 523d
00000370: cb84 d03d 5500 b8bb 20b4 84bd 3fce 133e
00000380: 35c2 49bd 1daa 35bd b1b9 1c3d 3537 323e
00000390: f995 8ebb 982d 02bd 59ad 783d 1400 e9bc
000003a0: a2d8 143e 193f 73bd 0301 d23d c8a0 3b3e
000003b0: 3b13 f93d 7e02 823d 2a82 0a3e bc66 80bd
000003c0: 1527 013e 4872 ad3d 00c1 9dbd af23 58bd
000003d0: 559d 90bc 7bb5 01bd 814f 2a3e fec4 2b3e
000003e0: 14e8 de3d 8b6f 1c3e 1a47 1b3d 8d06 86bd
000003f0: 3d06 893d 7132 d33d 6a13 b5bb 7886 123e
-0.07415928 -0.020410245 0.06741785 0.016559064 -0.045458578 0.009780478 -0.09132881 0.11061195
0.102416255 -0.0655428 -0.016233427 0.048709124 0.10350703 -0.029972909 0.019675799 0.12875092
0.04590711 0.051770423 0.15381113 0.009597117 0.11673228 -0.09371787 -0.041672513 -0.02071203
-0.01046219 0.05445387 0.0604426 0.0050834087 0.07425853 0.15462711 -0.086113006 0.07939282
0.10833636 0.10459641 0.033425666 -0.0831506 -0.073527224 -0.027846148 0.11375266 0.13414644
-0.051274106 -0.091007024 0.11014213 0.076615736 0.12742528 0.08782419 -0.024793753 0.10794838
0.093695685 -0.03273368 0.059210062 -0.045602877 0.05992618 -0.052552093 -0.04449347 -0.008967369
0.045538675 0.1251288 -0.07071264 -0.02413245 -0.013667475 0.1676484 0.13915496 -0.021534933
-0.007919608 -0.091365814 -0.09322214 0.064640805 0.04990334 -0.14097893 0.01851959 -0.056631297
0.030829564 0.12598252 0.004845453 -0.0907522 -0.07228321 0.025379958 -0.044404604 -0.018858321
-0.09330194 -0.02414772 0.120970614 0.036809094 -0.06629919 -0.1084239 0.116256006 -0.10281441
0.023020359 0.039394483 -0.024879117 0.11846611 0.10311037 0.1305287 -0.12723638 -0.038662247
0.102336764 0.012639469 0.06945443 0.009431439 -0.0020937456 -0.03799171 0.03395327 -0.013201944
-0.029726408 0.08824048 0.11878969 0.020738238 0.08091858 0.058716305 -0.042090394 -0.06443513
-0.025526585 -0.081239134 0.11823423 0.032686766 -0.07585913 0.13903508 -0.01504052 0.024369795
-0.025645701 0.06562553 -0.02285435 0.0022451037 -0.11493159 -0.0330643 0.14200915 -0.029031184
-0.067083076 -0.07836575 0.0020747085 0.11403286 0.05003123 -0.04499462 -0.074073285 0.093242206
0.0042875577 -0.0123204505 0.00961581 0.044175677 -0.114611246 -0.09466603 0.016547844 0.089378834
-0.009031157 0.055958014 -0.08591197 -0.10923963 -0.033814795 -0.08886965 0.0850342 0.09443096
-0.08384909 0.04302719 -0.048303377 0.15513137 -0.105001114 0.15439402 0.045357093 0.0549265
-0.07749077 0.13301827 0.03835327 0.13148078 -0.12109536 -0.07562104 -0.027774466 0.011778101
-0.13015582 0.004086922 -0.03163313 0.076762624 0.082803674 0.0053595332 0.14717382 -0.14589955
-0.03415119 -0.0347391 -0.04021888 -0.08588089 0.026073026 -0.02691052 -0.04376767 -0.027326398
0.07762868 -0.02237779 0.080396205 -0.074729145 0.05763937 0.045413908 0.02569709 -0.024427341
0.07606878 0.108922355 0.104722306 -0.060473647 0.15644804 0.06232876 0.049214713 0.07509697
0.11963033 0.025185348 0.12515728 -0.07388715 0.006161504 0.06467217 -0.033219468 0.19722144
0.09152003 0.013989696 -0.01228025 0.056664422 0.19004232 -0.06534034 0.030140858 0.18584602
0.1504487 0.117157966 0.03156323 0.051438395 0.10181578 -0.005615274 -0.064796686 0.14434145
-0.049257476 -0.044351686 0.038263027 0.17403872 -0.004351374 -0.031781763 0.060712192 -0.02844242
0.14535764 -0.059386346 0.10254099 0.18323052 0.12161871 0.063481316 0.13526216 -0.06269595
0.12612565 0.08469063 -0.077028275 -0.052768406 -0.017653147 -0.031667214 0.16631891 0.16774365
0.10884109 0.15276925 0.037909605 -0.06544218 0.06690643 0.10312355 -0.005525996 0.14309108
