streamlit/streamlit_model.pt (torch, 264385 bytes, 14 tensors)

lstm.weight_ih_l0 f4 [256, 41]
000000 45 3e 89 bc e5 3a bc bd 80 90 25 bd b0 6e af bd
       -0.016753325 -0.09190921 -0.04042101 -0.08566034
000010 b6 dc 02 bd aa b1 0d 3d da 46 9e 3d c7 22 6f bd
       -0.031948768 0.03459326 0.077283576 -0.058382776
000020 2d 03 82 3d 83 2f 0b bd 25 81 27 bd ca 37 f1 bd
       0.06348262 -0.033980858 -0.040894646 -0.11778219
000030 21 77 02 be b9 f2 03 3e aa 09 63 bd 7c 4d 04 3e
       -0.12740757 0.1288556 -0.05542914 0.12920183
000040 fa bb aa 3d 00 32 a6 bd a8 c4 d1 bd c9 8e d6 3d
       0.08336635 -0.081150055 -0.10242587 0.10476453
000050 88 d9 69 3d 54 17 93 bd ed 13 35 bd 4e 07 07 bd
       0.05709222 -0.07182184 -0.044208456 -0.03296595
000060 f3 d9 0d be a8 94 21 3d ae ac 24 3d e1 c2 09 be
       -0.13852672 0.03944841 0.040203743 -0.13453247
000070 0f 1e 10 3e ea 0e e4 3c ff 55 ff 3d 83 c2 01 be
       0.14073966 0.027839143 0.12467574 -0.12671857
000080 6e 3a c0 bc 82 71 6c bd c7 17 f7 3d b0 dd 83 bb
       -0.023465361 -0.057725437 0.12065082 -0.00402423
000090 66 8a 0f 3e e1 a2 ab bd 13 31 01 be 2e 24 b5 3d
       0.14017639 -0.08380676 -0.12616377 0.08844791
0000a0 c7 5b a3 3d ae 71 d6 bd 21 37 dd 3d e7 d8 8e bd
       0.079764895 -0.104709014 0.10801531 -0.069749646
0000b0 c2 7a 9f bd a2 38 d1 3d 96 29 0b 3e 85 83 10 3e
       -0.07787086 0.1021588 0.13590083 0.1411267
0000c0 34 09 01 3e 26 cd da 3d 4a 87 cf bc 2a bc 3d bd
       0.12601167 0.1068366 -0.025333066 -0.046322025
0000d0 db 08 aa 3d 3d 30 cb bc 6e 47 38 bc f5 64 ab bc
       0.0830247 -0.024803275 -0.011247499 -0.020922164
0000e0 56 61 09 be 28 7a d0 3d c0 fe 1a 3c 8a e3 a2 3c
       -0.13416037 0.101795495 0.009460151 0.01988389
0000f0 68 cf bb bd 15 98 85 3d b1 6e b2 bc 53 84 e1 bd
       -0.09170419 0.06523148 -0.021781297 -0.11011567
000100 61 b4 e8 3c 19 a7 cd bd 06 a2 a1 bd de 41 35 bd
       0.028406324 -0.10041637 -0.07892232 -0.04425227
000110 cc 94 0e 3e f5 3d c0 bd c2 4f cb 3d 1a dd b1 3b
       0.13923949 -0.09386817 0.09927322 0.0054279687
000120 8c e3 5b bb 6b 79 f9 bd 01 e6 06 3e f7 a9 86 bd
       -0.0033552377 -0.12181362 0.13173677 -0.06575387
000130 c9 69 0c 3e 9c 11 6c bd 7b d2 8a 3c c0 a6 0b 3d
       0.13712229 -0.05763398 0.016946068 0.034094572
000140 61 bd ac 3d cf 1d 0d 3e b6 39 bb 3d 02 e9 76 bd
       0.08434559 0.13780902 0.09141867 -0.060280807
000150 f5 5f f7 3d 98 25 a6 3a db 32 e3 bd 89 5b c1 bd
       0.12078849 0.0012675999 -0.11093684 -0.09441287
000160 14 11 12 3d 98 d1 5e 3d 03 5a 5b 3d ca 85 ce bd
       0.03566082 0.054399103 0.05355264 -0.10084112
000170 7f 9a 4b 3c 16 5e b7 bd cd 0d ba 3d 18 00 b0 3a
       0.012426971 -0.08953492 0.090846635 0.0013427762
000180 37 2c c9 3d ed bf 3a bc f2 af fc 3d 5c c2 0f 3d
       0.098228864 -0.011398298 0.123382464 0.035097465
000190 2a 2f fc 3c 4f ba 07 3c 4f b8 fb bd f8 fd b5 bd
       0.030784208 0.0082841655 -0.122910134 -0.08886331
0001a0 f2 09 d2 3d dd 32 bd bc 3c 67 07 be 2a e6 d5 3d
       0.10255803 -0.023095543 -0.13222975 0.10444291
0001b0 a0 ea 74 3d 46 ee a5 bd 08 63 4f 3c 44 ef fc bc
       0.05979407 -0.08102088 0.012657888 -0.03087581
0001c0 5c 70 bd bd aa 84 a7 3d 45 fd cd 3d 55 89 9a 3c
       -0.092499465 0.081796005 0.10058073 0.018864313
0001d0 f3 52 87 3d 65 53 a8 bc 3a 7d ff bd 01 5f 7c bd
       0.06607618 -0.020547578 -0.12475057 -0.06161404
0001e0 14 ec 77 bc 35 22 ee bd 87 c6 ca bb c7 c5 d6 bd
       -0.015131969 -0.11627618 -0.006188217 -0.10486942
0001f0 74 43 9b bd ae 3d 9e 3c 90 33 06 be 93 91 d4 3d
       -0.07581225 0.01931652 -0.13105607 0.103793286
000200 3b e9 a1 bd 57 a9 9f 3d 3b 22 e8 bd ee b8 78 bc
       -0.07905813 0.07795971 -0.11334654 -0.015180809
000210 2b f8 cb 3d be e8 5c 3d 9d 65 84 bd f8 2e 8f 3c
       0.09959444 0.053932898 -0.06464694 0.017478451
000220 e6 50 fe 3d 68 49 01 3d dc 90 87 bc 9e 79 bc bd
       0.12417774 0.031564146 -0.016548567 -0.09202884
000230 81 b2 9b bd ad 1e 93 3d 13 b9 d9 3c d0 5a d4 bd
       -0.07602406 0.07183585 0.026577508 -0.103688836
000240 4d a1 da 3d 0f f0 70 3d 89 12 6b bd ff 7f 8a 3d
       0.10675297 0.058822688 -0.057390723 0.067626946
000250 ca c6 b4 3c 09 d3 98 bd ee 4f ac 3d 73 5e 71 bc
       0.022067446 -0.07462127 0.08413683 -0.014731991
000260 f1 26 95 bc c1 c7 b5 bd 37 08 12 ba 48 fa b4 bc
       -0.018207045 -0.08875991 -0.0005570682 -0.022092
000270 3b b6 b5 3d f5 93 24 3d 8c 7f ec bd 57 85 05 3e
       0.08872648 0.040180165 -0.11547765 0.13039146
000280 3b 83 1d 3d f8 bf db bc 87 cd 81 3d 2b 5f c7 bd
       0.03845523 -0.026824936 0.06338029 -0.09734949
000290 98 82 fa bd 6c d5 46 bd 9b dc 62 3d 61 52 ba 3b
       -0.1223194 -0.04854338 0.055386167 0.00568609
0002a0 aa 77 50 3d 29 ea 79 bd 52 ec 21 3d 54 02 89 3d
       0.05089537 -0.06101433 0.039532013 0.06689897
0002b0 65 ac df bd 4a e1 6e 3d 92 ba cf 3c b0 f9 86 bc
       -0.109215535 0.05832032 0.025357518 -0.016476482
0002c0 c1 6a b1 3d 56 aa e4 bd e8 70 0a 3d 8b 60 cd bd
       0.0866294 -0.111653015 0.033799082 -0.1002818
0002d0 e2 c6 b4 3c 05 4a 9a bd 8e 7e 1b 3d a3 e4 f3 3d
       0.022067491 -0.07533649 0.03796249 0.11908843
0002e0 a6 fb f4 bc 05 d7 c2 3d 1d f8 b8 bd 99 1b 93 3d
       -0.029905152 0.09513668 -0.09031699 0.07182998
0002f0 d6 ac 83 3d dc 1b dd bd f6 3f e3 3d 46 b0 fd 3d
       0.0642945 -0.107963294 0.11096184 0.12387137
000300 ef 05 b9 3d 2e 4a de bd cc b0 d2 bd fb cd c1 bd
       0.09034335 -0.108539924 -0.102876276 -0.09463116
000310 72 01 b4 3d 07 85 02 3e 9f b7 87 3d 0a 7d d0 bd
       0.08789338 0.12746058 0.0662682 -0.10180099
000320 72 9f 3a 3d 21 67 62 3d 58 5e 83 bd a3 12 b8 bd
       0.045562215 0.055274133 -0.06414479 -0.0898793
000330 3d e5 b5 3c 84 2d 74 3d 53 16 80 3d 76 80 ae bd
       0.022204036 0.05961372 0.06254258 -0.08520596
000340 cf de 31 bd 4b 08 7c 3c ee 4c bd bd 89 25 92 3c
       -0.043425377 0.015382837 -0.09243189 0.017840164
000350 c4 71 e6 bd 1a 27 13 3e ed 1e 86 3c 1c 67 d7 3d
       -0.11252168 0.14370385 0.016372168 0.105177134
000360 dc 9f b4 3d 0f c5 84 bd 1a b6 2f 3d 0b 0b f5 3d
       0.08819553 -0.064828984 0.042898275 0.11964997
000370 d1 d0 82 bc 46 61 8f bd a7 ed 59 bd d8 55 7c 3d
       -0.015968712 -0.07000975 -0.05320516 0.061605304
000380 44 1b 55 bd d3 ff 4b 3d 08 a7 02 be b9 3c 07 be
       -0.052027956 0.04980452 -0.1275903 -0.13206758
000390 ff f6 c9 3d e5 81 b4 bd a7 bd 27 3c 3d 58 e9 bd
       0.09861564 -0.08813838 0.010238088 -0.11393783
0003a0 ef c8 57 bd c6 d2 ac bd f7 55 03 bb d3 ad 86 3c
       -0.05268186 -0.08438639 -0.0020040253 0.016440308
0003b0 3e 62 83 3d 45 b1 d9 bd 73 c3 10 3e 9a 2a 2d ba
       0.064152226 -0.106295146 0.14137058 -0.00066057744
0003c0 2a a4 3c bc f1 d7 c3 3d f0 4b d9 38 2f 8e 3a 3d
       -0.011513749 0.09562672 0.00010361511 0.045545753
0003d0 b7 57 05 3b ee dd 58 bd 42 81 c0 bc 47 56 e0 3d
       0.0020346472 -0.052946024 -0.023499135 0.10953956
0003e0 42 a7 af bd f5 32 86 bd 8a 13 db 3d 49 3e 82 3d
       -0.08576824 -0.06552688 0.10697086 0.06359536
0003f0 2d 98 20 3c fa b1 09 3d f0 2a b8 bd 11 f4 d1 3d
       0.0098019065 0.033616997 -0.08992565 0.1025163

lstm.weight_hh_l0 f4 [256, 64]
000000 e5 fc 7e bc 22 5e 8c bc 4a 12 c7 bd 90 0b d7 3d
       -0.015563224 -0.01713473 -0.09720285 0.10500252
000010 b0 88 a6 bd 95 72 d1 3d 3e e9 0f be 2e 7c b8 3d
       -0.0813154 0.10226933 -0.14053819 0.090080604
000020 86 95 06 3d fb 28 4f bd a2 5b 8a bd 93 7b 49 bd
       0.03285744 -0.05057619 -0.06755759 -0.049190115
000030 46 4c 7a bd aa 13 ab 3d dc 63 04 3d 84 c1 68 bd
       -0.061107896 0.0835336 0.032321796 -0.056825176
000040 98 9d b3 bd a1 04 d0 bd f1 d7 e9 bd 2b a6 92 bb
       -0.08770293 -0.10157133 -0.11418141 -0.004475375
000050 9f e3 ea bd ec 50 9d 3c 43 14 c4 3c e2 15 d1 bc
       -0.114691965 0.019203626 0.023935443 -0.02552313
000060 5d 3b f9 bd 1f 78 be 3d 28 6f 7d bd 8d ed ba 3d
       -0.12169526 0.09300255 -0.061873585 0.091273405
000070 49 5a c4 3d 73 5f 80 3d 11 c9 9d bc b3 59 d1 3d
       0.09587533 0.062682055 -0.019260915 0.10222187
000080 e6 6b d0 bd 05 74 e6 3d f4 bb 31 3d 82 2e bc bd
       -0.1017683 0.11252598 0.043392137 -0.09188558
000090 5d 11 8e bd 8b bb 57 bd 5a 1f 34 3d 6d 7a a4 3d
       -0.069369055 -0.05266909 0.04397521 0.08031163
0000a0 99 cc 94 bd e4 8a 0e be 86 c7 c6 3c 47 a5 08 be
       -0.072655864 -0.1392017 0.024265062 -0.13344298
0000b0 f9 42 ed 3d a3 aa eb 3d fa 02 a7 bc 48 a8 0a bc
       0.1158504 0.11507156 -0.020387162 -0.008462973
0000c0 b7 28 18 3d 13 41 81 bd d0 f9 89 bd da 38 51 3c
       0.037148204 -0.0631124 -0.06737101 0.012769902
0000d0 6c 38 8f bc 8a b1 6b bd 78 69 39 3d 08 ec 8e 3d
       -0.017482959 -0.05754236 0.0452666 0.06978613
0000e0 99 84 00 3c 3d d7 74 bb 35 28 b8 3d 7f b3 05 bd
       0.007844114 -0.0037359737 0.08992044 -0.032641884
0000f0 08 54 e7 bd 51 77 2c 3d d1 82 0a 3e 5f b7 09 be
       -0.112953246 0.042105976 0.13526465 -0.13448857
000100 1c fa ce bd 03 66 92 3d 3c 8e 89 3c 84 33 44 bd
       -0.10106298 0.071483634 0.016791455 -0.04790069
000110 f4 69 09 3e 55 bf cd bd ca 1f 55 bd 9a b0 07 bd
       0.13419324 -0.10046259 -0.05203227 -0.033127405
000120 11 ef a0 3c b9 ad 3a bd 18 51 ad 3c 3e 5d 58 3c
       0.019645246 -0.04557583 0.021156833 0.013205824
000130 88 8a 4e 3d 30 23 a1 bd 77 f9 9c 3d 5d 44 ef bc
       0.050425082 -0.078680396 0.07664769 -0.029207403
000140 51 27 ac bd 9f d8 2c 3d 60 5f a4 3c 70 b3 07 3d
       -0.084059365 0.042198773 0.02006501 0.03313011
000150 fd 30 84 bd 08 b0 d2 3d 04 a4 8b bd 81 21 ff 3d
       -0.06454656 0.102874815 -0.06818393 0.12457562
000160 fe d5 21 3d 3f 18 c1 bc 19 a5 ff 3d 1e 5d 66 bc
       0.03951072 -0.023571132 0.12482662 -0.014060287
000170 fd 25 5c bd 16 01 c9 3b be bc 62 3d a4 20 a1 3c
       -0.053747166 0.0061341627 0.05535578 0.019668885
000180 c4 85 ce 3d 99 fe d8 bd 19 51 4a 3d ac ee 8a bd
       0.100841075 -0.10595436 0.049393747 -0.06783804
000190 0c 83 8c bd d8 f9 bb 3d 77 8c bc bd 62 b7 0f be
       -0.06860933 0.09178513 -0.09206479 -0.14034799
0001a0 9d 90 9e bc da a3 8b bd 5d b5 8d 3c 28 5a 55 3d
       -0.019356066 -0.068183616 0.017298395 0.052087933
0001b0 4f a8 16 3d b6 2d 16 3d 86 30 b7 3d 05 a4 91 bd
       0.036781605 0.036664687 0.08944802 -0.07111362
0001c0 4c 28 a3 3c 3f dd 92 bd fb 59 84 3d 43 fe fc bd
       0.019916676 -0.071711056 0.06462475 -0.12353184
0001d0 1d 5d b0 bd b6 81 ce bd 05 50 07 be 4a 54 5d 3d
       -0.0861151 -0.10083334 -0.13214119 0.054035462
0001e0 45 c7 be 3d 06 15 78 bd 43 83 74 3d cc 33 a6 bd
       0.093153514 -0.060566925 0.059695493 -0.08115348
0001f0 cf aa a6 bd 17 9a 63 3d ae ed 8d 3c 36 4b b0 bd
       -0.08138048 0.055566873 0.017325249 -0.08608095
000200 1c 42 9c 3d c5 10 a5 bd a7 00 c5 bc 4e 75 ee 3d
       0.07629797 -0.08059839 -0.024048163 0.11643468
000210 b8 96 c6 3d 0a 21 74 bd 97 71 1d bd ce 48 96 bd
       0.09696716 -0.05960182 -0.038438406 -0.07338105
000220 82 d2 9a bd a2 3a f5 39 35 3a 8d bc f8 0b ce bd
       -0.075596824 0.00046773726 -0.01723967 -0.100608766
000230 92 41 d9 bd 47 05 65 bd 9e 84 d6 bd 02 a1 ec 3d
       -0.1060821 -0.055913236 -0.104745135 0.11554147
000240 c2 48 4e 3d ee 84 85 bd 26 1b 30 3d 78 e0 41 bd
       0.050362356 -0.06519495 0.04299464 -0.04733321
000250 54 fa 7a bd 32 18 ec bd f6 a9 5a bd f6 ff 02 bd
       -0.061273888 -0.115280524 -0.053384744 -0.031982385
000260 eb e4 09 3e 03 fa 2d bd 1c 41 52 3d 59 d8 d8 3d
       0.13466232 -0.042474758 0.051331624 0.1058814
000270 6a 2c 6c bd 93 fa 0b 3c 02 7c b3 bc fd c2 85 3b
       -0.057659544 0.008543628 -0.021909717 0.0040820823
000280 11 23 3b 3d 82 fe 29 3d bc fc 53 3d b4 36 e3 3c
       0.04568774 0.041502483 0.0517547 0.027736045
000290 4a 1b d9 3d ad 1e 77 bd d7 4f ac bd c4 a4 2b 3b
       0.10600908 -0.06033199 -0.08413666 0.0026190737
0002a0 0d d1 94 bd 21 d8 9c 3d c6 b3 c7 bc c3 f2 23 3d
       -0.07266436 0.07658411 -0.024377715 0.040026437
0002b0 a0 66 e0 3c 69 d0 9e 3d b3 8f 7a 3d 35 e4 05 bd
       0.027392685 0.07754595 0.0611722 -0.03268834
0002c0 08 07 a3 bc c6 3a e9 bd 05 fe 33 3d 54 17 28 bd
       -0.019900814 -0.11388163 0.043943424 -0.041037872
0002d0 be 18 8a bd 0d 7f c5 3d c8 9d d7 3d 62 e5 a9 3d
       -0.067430004 0.09643374 0.10528141 0.082957044
0002e0 2d d9 31 3d b8 8a e0 bd ff 1c 6f 3c f2 b1 94 bc
       0.043420006 -0.109639585 0.014594316 -0.018151257
0002f0 06 ec b8 3c 9b 9a 90 bd fc fd 6d 3d 62 d2 c4 3d
       0.022573482 -0.07060739 0.058103547 0.0961044
000300 37 45 e5 3d fc a2 65 bd df a5 ea 3c c6 64 20 3d
       0.11194842 -0.056063637 0.028643547 0.039158605
000310 6e 13 a8 3d ae 51 3f bd 17 41 ad bd c1 90 2c bd
       0.08206831 -0.046708755 -0.084596805 -0.042130236
000320 75 e6 58 3d 55 39 e2 bd 90 83 02 3e 34 8d 80 bd
       0.052954156 -0.110460915 0.127455 -0.06276932
000330 2e 71 2b 3d c0 59 c3 bd df 44 42 3d c8 bf b1 bc
       0.041855983 -0.09538603 0.04742896 -0.021697894
000340 0b ea 2d bd 25 e2 95 3d f3 ff f6 bd 04 06 bb 3d
       -0.04245953 0.07318524 -0.12060537 0.09132007
000350 8d 58 b7 3d 25 b4 07 bc 74 72 b6 bd 83 37 cf 3d
       0.089524366 -0.008282696 -0.08908549 0.1011801
000360 95 c6 2c bd 7e 5e 96 bd 0c af be bd cc 08 85 bc
       -0.04218157 -0.07342242 -0.09310731 -0.016239546
000370 68 07 b0 3d 03 49 ab bd 5b ff c2 3d d8 60 38 bd
       0.08595163 -0.08363535 0.095213614 -0.045014232
000380 fd 78 90 bd 35 9f d9 3d 45 05 cc 3b 02 57 63 3c
       -0.07054327 0.106260695 0.006226214 0.013875725
000390 26 42 12 3d 6b 01 bf bb 83 52 7b 3c ca e4 59 bb
       0.035707615 -0.0058290265 0.015339497 -0.0033247941
0003a0 65 9f 9d bd a4 5e 94 3b 4e 68 ca bd c3 3a f9 bc
       -0.07696418 0.0045278836 -0.09883176 -0.030423528
0003b0 73 23 2b bd 7f 68 a1 3d 56 e6 a7 3b ae b3 01 3e
       -0.041781854 0.07881259 0.0051238937 0.12666199
0003c0 90 4a 3a 3d b2 cb d2 3d b2 2d d1 bb 8f 1e e6 3d
       0.045481265 0.10292758 -0.006383621 0.11236297
0003d0 73 2d 3a bc c2 53 95 3c f9 f7 c1 3d 8b bf 77 3d
       -0.011363375 0.018228415 0.09471125 0.060485404
0003e0 56 17 3e 3a d3 68 c2 3d b6 62 f1 3d b2 5e cc bd
       0.0007251402 0.0949265 0.11786406 -0.09978999
0003f0 6a 73 ec bd 63 0c 0a bc 61 49 40 3d 6d b7 01 be
       -0.11545451 -0.008425805 0.04694498 -0.12667628

lstm.bias_ih_l0 f4 [256]
000000 38 ed 2a bd bb a1 e7 3b df fa 7e 3d 17 b0 65 3c
       -0.041730136 0.0070688403 0.062250968 0.014019034
000010 81 da 73 bd c2 1f 59 bc e4 d2 68 3d 52 c1 07 bc
       -0.059534553 -0.013252201 0.056841746 -0.008285837
000020 65 c9 ae bb ab 6c e2 3d ff d3 0a bd ea f0 f9 3d
       -0.0053340667 0.11055883 -0.03389358 0.12204154
000030 09 84 13 3d 35 2c b5 3d 2f fc ad bd b2 c7 18 bd
       0.03601459 0.088463224 -0.08495366 -0.03729982
000040 7f bf 8b 3d a2 95 c7 bc d3 8c fa 3c f8 20 a7 3d
       0.06823634 -0.024363343 0.030584728 0.08160585
000050 89 57 dd 3b ac 56 76 bd f0 53 06 be f6 a9 e3 3d
       0.00675482 -0.06014125 -0.13117957 0.11116402
000060 32 b9 d7 3d 02 a0 f1 bc 87 9f e4 3d 37 da 32 3d
       0.1053337 -0.029495243 0.1116324 0.043665137
000070 4d 0b d9 bd 38 dc 06 3e 0f 5b dc 3d 2b 18 08 3e
       -0.105978586 0.13169944 0.107595555 0.1329047
000080 9c fc cb bd 0a a1 26 3d 33 63 a6 3d df a2 a3 3d
       -0.09960291 0.040680923 0.081243895 0.079900496
000090 9f 16 da bd 6f f7 9d 3d 2c e1 01 3e 58 2d 36 bd
       -0.10648846 0.0771321 0.12683553 -0.044476837
0000a0 4a a7 ce bd ec d0 2f bd fb 82 fd bd ac 6a 30 3d
       -0.100905016 -0.042923853 -0.12378498 0.04307048
0000b0 cf ef c6 3d b1 24 95 3d 14 7c 93 bd e9 b7 d8 3d
       0.097137086 0.07282389 -0.072014004 0.10581953
0000c0 26 3d ac 3d 69 8f 77 3d a0 46 fd bd 4c 4e 59 bd
       0.08410101 0.0604395 -0.12366986 -0.053053185
0000d0 f4 39 1b 3d 9d f6 24 3d a9 47 72 3d 1a e1 a1 bd
       0.037897065 0.04027425 0.05915037 -0.07904263
0000e0 7b 4f c4 3d 06 4e fa 3c c2 b8 a5 bd 73 9f 0b bd
       0.09585472 0.030554783 -0.080918804 -0.03408761
0000f0 2f f3 e5 3d 6e 77 17 3d de 8e 12 bd af c8 6c bd
       0.11228024 0.03697913 -0.03578078 -0.057808574
000100 cb 70 50 bd 41 e7 99 3d 59 4f d8 bd bf e5 f5 3d
       -0.050888818 0.07514811 -0.10562009 0.12006711
000110 3e 10 29 bd 9d fd 52 3d b9 b4 ff 3d b2 26 0d 3e
       -0.041275255 0.051511396 0.12485642 0.13784292
000120 83 4c 1a bd 14 8e bd 3c b0 92 d4 bd 6f dc a0 3d
       -0.037670624 0.023139037 -0.10379541 0.07854544
000130 ac dd 63 3c 18 45 b8 bd d8 2c 8d 3d 32 21 82 bc
       0.013907831 -0.089975536 0.06893319 -0.01588497
000140 f8 0c b8 3d 76 9b 92 bd 67 4c 61 bd ed df a3 bd
       0.089868486 -0.07158558 -0.055004504 -0.08001695
000150 e2 4d f0 3d 31 7f 7f bc 05 e5 3e 3d f5 b2 f8 bc
       0.11733605 -0.01559429 0.04660513 -0.03035877
000160 24 ad e1 3c f9 45 8e bc 93 9e 04 3e 71 bd c9 3c
       0.02754838 -0.01736735 0.12951116 0.024626466
000170 db c0 0c 3e cc 8c 41 bd e1 6c 17 bd 7e 41 f0 bc
       0.13745444 -0.047253415 -0.03696907 -0.029328104
000180 5d eb da bd 31 9a 07 3e de dc 0b 3d 69 3a 56 3d
       -0.10689423 0.13242413 0.034146182 0.052301798
000190 cb 97 52 bc 97 ef c5 3c cd e4 a0 bd 0f cd 34 bd
       -0.012853573 0.024162097 -0.0785614 -0.04414087
0001a0 94 a8 8d bd a3 de ac 3d a6 a2 37 bc 12 1b 77 bd
       -0.06916919 0.08440902 -0.011208212 -0.06032855
0001b0 e9 e5 2f bd 5b 68 98 bd e1 2e b6 bd a8 eb fd 36
       -0.04294387 -0.07441779 -0.0889566 7.5674216e-06
0001c0 a3 55 65 bc 5b 55 d6 bd 89 67 fd 3d 43 47 09 bd
       -0.013997468 -0.10465499 0.123732634 -0.033515226
0001d0 22 06 d5 bc 6d dd 22 bd 8b 34 74 3d 72 69 7f 3b
       -0.0260039 -0.03976195 0.05962042 0.0038972762
0001e0 82 01 0d 3e 75 ef bf bd 46 a3 0f 3d ea 01 4c 3b
       0.13770106 -0.09371845 0.03506782 0.003112907
0001f0 86 6f ec 3c 79 74 bb bd 1a b5 cc 3d f2 1c 6e bc
       0.028861772 -0.09153075 0.0999548 -0.014533268
000200 a4 10 e1 3c 09 a7 57 3c 70 47 8a 3d 22 db b0 bd
       0.027473755 0.013162383 0.06751907 -0.08635546
000210 e8 14 de bc bd b1 1c 3d 77 37 6c 3d c8 2c 07 be
       -0.027109578 0.038255442 0.057670083 -0.13200676
000220 7c 65 dc 3d 8f b9 c0 bd 7a 5c 4b bd b5 16 4f 3d
       0.10761544 -0.094103925 -0.04964874 0.050558764
000230 44 9f 1f 3d 5d 71 73 3d 68 ac d9 bb 9d 65 f8 bd
       0.038970247 0.059434284 -0.006642867 -0.12128756
000240 ec 83 30 3d 4b 51 48 3d 83 93 24 bd f3 b7 3c bd
       0.04309456 0.048905652 -0.04017974 -0.046073865
000250 2e 59 3f bd f1 05 ef 3d c1 65 da bd 94 07 86 bd
       -0.046715908 0.11671055 -0.10663939 -0.06544414
000260 c7 7a 2c bb 15 34 f1 3d b2 6e 9b bc df 67 ac bd
       -0.0026318298 0.11777512 -0.018973682 -0.08418249
000270 c1 fe e4 3d 2a 4b 51 3d 29 21 b0 bb 9d bb c9 3c
       0.11181403 0.051097073 -0.0053750467 0.024625594
000280 2f a4 40 3b bb cd c7 bd d6 46 10 be 70 30 9b bc
       0.0029394736 -0.09756037 -0.14089522 -0.018943995
000290 ee 15 98 bd 41 1e d9 3c 22 ae 80 3d 1f 1c 01 3e
       -0.07426058 0.026503684 0.06283213 0.12608384
0002a0 43 2c 5f bd 86 94 98 bd 82 9d ce bd 0d 66 dd bd
       -0.05448557 -0.074502036 -0.10088636 -0.1081048
0002b0 45 be 50 3c d0 85 88 bd 41 e6 91 bd d0 2c c8 bd
       0.012740676 -0.06666148 -0.071239956 -0.09774172
0002c0 20 2a aa bc a1 fe df bd 47 83 fa 3d 07 40 f7 bc
       -0.02077204 -0.109372385 0.122320704 -0.030181898
0002d0 27 c3 99 bd dd ed d4 ba 55 ca 00 bd 90 4b c1 3d
       -0.075079255 -0.0016245205 -0.03144296 0.094382405
0002e0 d2 af bd 3d fe 04 6c bc 37 79 34 3d 3a 0e 88 bd
       0.09262051 -0.014405487 0.044060912 -0.066433385
0002f0 8e 3b 8a bd 83 7c de 3c 11 d3 e9 3d f1 b6 aa 3d
       -0.067496404 0.027158981 0.11417211 0.083356746
000300 52 c0 fb 3d 63 f5 be bd 01 05 91 bd c0 8b 33 3d
       0.122925416 -0.093241476 -0.070810325 0.043834448
000310 f8 91 d0 3d 69 c1 82 3d cd 49 fd 3d 40 73 03 3e
       0.10184091 0.06384546 0.12367592 0.12836933
000320 d6 2f f2 3d 5f 16 cb 3d 93 32 dd bc 1c 61 95 3d
       0.1182553 0.09916376 -0.027001655 0.07293913
000330 76 fc 00 3e 54 36 9a bd 62 13 ee bb a7 75 2e 3d
       0.12596306 -0.075298935 -0.007265494 0.04259267
000340 b5 19 bc bd 87 be 83 bc f8 4f 41 3d 94 cb fc 3d
       -0.09184591 -0.016082061 0.047195405 0.12343517
000350 c8 a4 35 3d 98 e9 8f bd 72 c8 e8 3c d2 20 a8 3d
       0.0443466 -0.07026976 0.028415892 0.08209385
000360 c5 b7 8b 3d 5c 1e 2a 3b 37 e2 aa bd 2e 70 6b 3d
       0.06822161 0.0025958037 -0.08343928 0.05748003
000370 d2 b5 72 bd 53 ba ba bd 89 71 6d 3d e3 73 73 bd
       -0.05925543 -0.0911757 0.057969604 -0.05943669
000380 05 3c 83 3d 07 94 8c bd 63 e6 b4 3d 12 5f d8 3c
       0.06407932 -0.068641715 0.08833005 0.02641252
000390 c0 72 bd bc d4 d7 35 3c ac e5 03 3e bb 3c 71 bd
       -0.023126006 0.011098821 0.12880582 -0.058895808
0003a0 93 58 a8 3d f0 3c b8 3d 8f 0b 83 bd 2a 2f 99 bd
       0.08220019 0.08995998 -0.06398689 -0.07479699
0003b0 0d 5d 2a 3d de 41 49 bd 61 9a 95 3d bf fe db bd
       0.041592646 -0.04913508 0.07304836 -0.10741948
0003c0 c5 ed cc 3d 5f 74 cd 3d df 31 a3 3d db 28 d9 bd
       0.100062884 0.10031962 0.079684965 -0.10603496
0003d0 a8 64 83 3d 69 66 5e bd c4 4b 9f bd 63 4e 4d bc
       0.06415683 -0.054296885 -0.07778123 -0.012530896
0003e0 2b 54 6e 3d 81 ce b3 3d 7d 92 f0 3d 23 14 07 3e
       0.058185738 0.08779622 0.117466904 0.13191275
0003f0 20 50 c9 bd c9 30 a4 3b e3 d7 c8 bd d5 36 f7 3d
       -0.09829736 0.0050106985 -0.09806802 0.12071005

lstm.bias_hh_l0 f4 [256]
000000 93 73 6f bd ba f7 56 3a 09 8e d0 bd db 19 f8 3d
       -0.05845983 0.0008200366 -0.10183341 0.121143065
000010 96 31 b4 3c 80 33 b9 3d d9 36 a3 bd 07 8d 0a 3e
       0.0219963 0.09043026 -0.07969446 0.1353036
000020 67 40 b6 3c 72 ef ad 3b cb a4 01 3e 4a 33 ac 3d
       0.022247506 0.005308085 0.1266052 0.0840822
000030 98 81 46 3d 73 c1 af 3c d6 05 78 bd 42 f8 b4 bc
       0.048463434 0.021454548 -0.06055244 -0.022091035
000040 ed 4e cb bd e7 60 d3 bd 77 63 d6 3d da 97 a5 bd
       -0.09927163 -0.10321217 0.1046819 -0.08085604
000050 f0 28 fe bb 67 cd 4b bc bd 9b a2 3c 4a 09 05 bd
       -0.007756345 -0.012439108 0.019849652 -0.032479562
000060 b8 25 c8 bd b4 8c 25 3d 46 f0 7a bd 2b fd f4 bc
       -0.09772819 0.040417388 -0.0612643 -0.029905876
000070 42 8f 9c bc 5b 10 e5 3d aa 27 77 3d 02 46 90 3d
       -0.01911128 0.1118476 0.06034056 0.07044603
000080 2b 8e 0a 3c 28 c9 9e 3b 41 e8 f3 bc db df b3 3d
       0.008456747 0.004845757 -0.029773833 0.087829314
000090 13 51 bd 3d b7 15 e9 bd 89 48 99 bd ad 17 fa 3c
       0.09243979 -0.11381095 -0.07484538 0.030528868
0000a0 73 f5 53 bc 0b 43 dd bc 23 ef d5 3d 34 2f 8a 3d
       -0.012936938 -0.027009508 0.10446002 0.067472845
0000b0 4c 91 02 3e 11 60 10 3d 6f 8a 3e 3d c9 c8 5a 3c
       0.12750739 0.035247866 0.04651874 0.013353535
0000c0 ec 66 c7 bd 6e 28 35 bb a0 81 ce 3d 9f 19 a4 bd
       -0.09736428 -0.0027642506 0.10083318 -0.08012699
0000d0 7b d9 bc 3d 35 47 bc 3d 36 90 2e 3d 2a 20 a9 3d
       0.092211686 0.09193269 0.042618 0.08258088
0000e0 f8 8a 40 3d 7c a3 8e 3d 66 70 69 bd 78 e0 8d 3b
       0.04700753 0.06964776 -0.056991957 0.0043297373
0000f0 b7 3a 6a 3d 50 27 95 3d bd e4 ae 3b ee 47 d5 3d
       0.0571849 0.07282889 0.0053373263 0.1041411
000100 02 5e 8a 3c e8 1d cf 3d 4d 60 f2 3d 72 3d 07 3e
       0.01689053 0.10113126 0.11834774 0.13207033
000110 d5 77 be bd 47 32 87 3d 0f 1b 91 bd ee 24 0b 3e
       -0.093002 0.066013865 -0.07085239 0.13588306
000120 39 45 9d bd 5c 2e ff 3d 6a bf e0 3d af 2e 99 3d
       -0.07679219 0.12460014 0.10974009 0.07479607
000130 cb da 27 3c 0e a6 86 bd 8e 5c 7e bd fa d0 88 bc
       0.010245035 -0.06574641 -0.062099986 -0.01670121
000140 34 68 a7 3d 82 01 e3 3d 77 61 a0 3d a1 61 ac 3d
       0.08174172 0.11084272 0.0783109 0.08417059
000150 06 ca dc 3d 5f 62 db bd d8 61 cb 3d bc 46 92 bd
       0.107807204 -0.10712122 0.099307716 -0.07142398
000160 dd 2b 0b be 19 81 f6 3c 15 96 9b bd 2b fd ba 3d
       -0.13590951 0.030090855 -0.07596985 0.09130319
000170 18 35 e0 3c 9e b2 8c 3d cb 46 d8 bd 2e 45 dd 3d
       0.027369067 0.06870006 -0.10560378 0.108042106
000180 5f 1e a9 3d 3e de 82 3d 11 50 7d 3d 5b 81 d6 bd
       0.08257746 0.063900456 0.061843935 -0.10473891
000190 aa e2 12 bd db ca 7b bd d7 56 1f bd e3 08 0b 3e
       -0.035860695 -0.061472755 -0.038901176 0.13577609
0001a0 40 07 22 3d 6f 19 ea 3d 98 ac 04 bd 27 30 63 3c
       0.039557695 0.11430632 -0.03239116 0.013866461
0001b0 a8 a3 e6 3b 5b 52 dc 3d eb b9 e0 3d a1 5d 0d 3e
       0.0070385523 0.107578956 0.10972961 0.13805248
0001c0 12 50 c1 3d f6 a7 9d 3d 25 e9 ee 3d 91 99 df 3b
       0.094391 0.07698052 0.116655625 0.0068237265
0001d0 eb 85 ce 3d cc 35 ad 3d ed 9f 90 3d 49 e7 81 bd
       0.100841366 0.084575266 0.070617534 -0.06342942
0001e0 cd 3b bc bd 5b 54 c1 3c 36 fb 02 bd 0d ae 05 3c
       -0.091910936 0.023599794 -0.031977855 0.008159173
0001f0 bd c3 67 3d 53 c5 fc bd c0 66 ad 3d 05 36 4b bd
       0.056583155 -0.12342324 0.08466864 -0.049612064
000200 64 ca bd bc 58 34 2d bc d8 bf 0a 3d 69 63 4e bc
       -0.023167796 -0.010571562 0.033874363 -0.012596943
000210 db ec 88 3d a4 b2 86 bc 1b 6a 8f bd c4 ab f9 bd
       0.066858016 -0.016442604 -0.0700266 -0.12190965
000220 ab 81 04 3d 0c c4 00 be 0f 94 3d 3c c7 9e 8f bc
       0.032350224 -0.12574786 0.011570944 -0.017531766
000230 d0 44 6e bd 73 9d eb bc 41 3a bc 3d 88 5e bd bc
       -0.058171093 -0.028761601 0.091907986 -0.023116365
000240 c3 8a 0c 3e c9 5e f3 bd 7f 43 b3 3d 4f 73 3d 3d
       0.13724808 -0.11883313 0.08753108 0.046252545
000250 b3 a6 05 3c c1 c7 ea bd 03 a0 8d 3d d0 0f 67 3d
       0.00815742 -0.11463881 0.069152854 0.056411564
000260 e5 14 a1 bd e7 a8 0d 3d 80 7d a5 3d 28 d2 27 bd
       -0.078653134 0.034584906 0.08080578 -0.040971905
000270 19 4c a1 bd 3d f9 90 bb 41 a0 ac bd 22 76 84 bd
       -0.078758426 -0.004424243 -0.084290035 -0.064678445
000280 3b ad b4 3b 74 52 13 3d d1 bd 87 3d 4a 00 af 3d
       0.0055138147 0.035967305 0.066280015 0.08544977
000290 15 86 b6 bc 6a b5 09 be e6 58 e9 bc 36 c8 04 bd
       -0.022280732 -0.1344811 -0.028484773 -0.0324175
0002a0 35 b9 8d bd 66 97 9e bc 78 03 bc bd 59 61 bf bd
       -0.06920091 -0.019359302 -0.09180349 -0.093447395
0002b0 d0 84 3f 3d 1a c4 04 3e 39 c5 40 bd 5d bd 13 3e
       0.04675752 0.12965432 -0.047063086 0.14427705
0002c0 8c bf 8a bd ae ac 12 bd 46 dd e2 bc f3 57 5a bd
       -0.06774816 -0.03580921 -0.027693402 -0.05330653
0002d0 fb f0 a6 3d b6 6b bd bb da b0 ad bd da a0 49 3d
       0.08151432 -0.0057806624 -0.084809974 0.049225666
0002e0 70 56 01 3e f9 36 02 3d fc 33 99 bc a6 b5 f0 3d
       0.1263063 0.031790707 -0.018701546 0.11753397
0002f0 56 f4 8e 3d bd e6 a2 3d f3 48 eb 3d 07 0b 68 3d
       0.06980197 0.07954166 0.11488523 0.05665114
000300 c6 93 4e bb 25 c9 8c bd 75 5a b8 3d e7 f6 bc 3c
       -0.0031521185 -0.06874303 0.09001628 0.023066951
000310 10 e4 23 bd 82 f1 af bd 7e 41 f0 3c b6 07 e5 bc
       -0.04001242 -0.08590986 0.029328104 -0.027957778
000320 42 a1 7f 3b 6f b5 e9 3d 5a 96 c1 bd fa b2 a2 3d
       0.003900603 0.11411559 -0.094525054 0.07944293
000330 10 62 d5 3d eb ec 90 bc 7e 55 65 3b 39 83 cf bd
       0.104190946 -0.017691096 0.0034993584 -0.101324506
000340 e3 cc 5d bd 5b ed 69 3d 4a 6a 96 3d 18 7d 49 3d
       -0.054150473 0.057111125 0.07344492 0.049191564
000350 9c 18 1a bd 0b df 85 bc 1c 9d c1 bd cb e1 f1 3c
       -0.037621126 -0.016341707 -0.09453794 0.029526612
000360 fb 88 9c bc 5f 19 5b bd 37 5a 56 3c 1f bd aa 3c
       -0.019108286 -0.053490993 0.013083032 0.020842133
000370 0a 5d 06 3d 53 37 6b bd 04 8f e8 3d b7 f0 cb 3d
       0.032803573 -0.05742581 0.11355403 0.09958022
000380 d9 4e 4e 3c 4b ab 10 3e d9 2f d9 bd 90 03 27 bd
       0.012592041 0.14127843 -0.10604829 -0.04077488
000390 50 d0 b2 bd 33 e8 ce bd 00 9d c2 bd a7 a5 0a 3d
       -0.08731139 -0.10102882 -0.095026016 0.033849385
0003a0 27 98 eb 3d d8 98 76 bc 51 d8 81 3d a1 28 dd bc
       0.1150363 -0.015051089 0.06340087 -0.026996912
0003b0 df 7e 04 bd 5f 34 e0 3d 2a 3c 54 3d 9d a6 5f 3d
       -0.032347556 0.10947489 0.05181519 0.054602254
0003c0 85 e1 3f 3c bd 6b e7 3d 61 bb d5 3d 3b 76 60 3d
       0.011711483 0.11299846 0.1043613 0.054800253
0003d0 3b 7d f5 3d 42 16 21 3c ae 64 c8 3d bd c7 7e bd
       0.119867764 0.009831967 0.09784828 -0.062202204
0003e0 a9 ae 08 3e e2 43 6c 3d a5 5f f6 3d 7d 40 3b 39
       0.13347878 0.057681926 0.120299615 0.00017857733
0003f0 f2 44 b9 bd e9 87 2f 3d 69 7e c4 bc 9d f1 31 bd
       -0.090463534 0.042854223 -0.023986058 -0.04344331

lstm.weight_ih_l1 f4 [256, 64]
000000 7d f2 0d bd 2d 40 23 3d c6 5c 2b 3d ac 49 ee bd
       -0.034655083 0.039856125 0.041836523 -0.116351455
000010 16 65 c9 3d 37 bd 98 3c e1 57 f4 3c b3 70 01 3e
       0.09833734 0.018644912 0.02982706 0.12640648
000020 37 a1 8b 3d cb 00 c0 bd d8 c9 a5 bc d8 8a 27 3d
       0.06817859 -0.09375151 -0.020237848 0.040903896
000030 f6 13 10 bd fe f9 27 bc 5b c5 f9 3d e9 e5 88 3c
       -0.035175286 -0.010252474 0.12195846 0.016711192
000040 15 0d 9b 3d f2 b2 91 3d 83 da d0 bd a8 8c c2 bc
       0.075708546 0.07114209 -0.10197928 -0.02374871
000050 97 4f a9 3d ae 51 9b 3c 71 6e 4b 3d 29 d9 a5 3d
       0.08267134 0.018959846 0.049665872 0.08098061
000060 81 ae 75 bd 12 4d 0b be a9 56 02 bd 1f ad ef bc
       -0.059980873 -0.13603619 -0.031820927 -0.029257355
000070 79 4b a5 3d 96 d5 ad bd cc ce 71 bd 7a 85 03 3d
       0.08071036 -0.08488004 -0.059035107 0.032109715
000080 5f 42 84 3d bf 9d 82 3d 4e a6 01 3d 96 16 e4 bc
       0.06457972 0.06377744 0.03165274 -0.027842801
000090 b2 0b b4 bd 14 36 4e 3d 8f fc 3d 3c 85 1d d7 bd
       -0.08791293 0.05034454 0.011595859 -0.10503677
0000a0 68 7a b4 bd 80 24 7a 3d 24 5a a3 bd 98 df f9 3d
       -0.0881241 0.061069965 -0.07976177 0.1220085
0000b0 22 bf e9 3d 4c e9 c2 3d 50 ff ec bd 18 f2 6f bd
       0.11413409 0.09517154 -0.115721345 -0.058580488
0000c0 de b2 bd 3d 3e 1a 80 bd 95 fa 05 bd 4a 75 3f 3c
       0.09262632 -0.06255005 -0.032709677 0.011685679
0000d0 a8 d1 c0 3c 18 53 cd 3d 85 05 6b bd 9f 07 59 3d
       0.023537472 0.100256145 -0.05737831 0.052985784
0000e0 ce 09 d4 bd 43 40 4d 3d 3a 50 97 3d e6 55 52 bd
       -0.103534326 0.050110113 0.07388349 -0.05135145
0000f0 d4 b2 d9 bd 04 d6 93 3d bd 5d 08 bd be c1 c2 3d
       -0.10629812 0.072185546 -0.03329252 0.0950961
000100 86 4f 18 bc 72 42 0d 3e 17 56 3d bd a1 0e 41 3d
       -0.009296304 0.13794878 -0.04622468 0.04713309
000110 d1 48 87 3d d5 7c cc 3d 2e cd ab 3c 8a ce 07 bc
       0.066056855 0.09984747 0.02097186 -0.008288989
000120 18 01 47 bd 6f de 5a 3d a5 5c a7 bd f7 79 f9 3d
       -0.048585027 0.053434785 -0.081719674 0.12181466
000130 4a df ae 3c 14 1e d9 3d cf 06 89 3d 74 38 3a bd
       0.021346707 0.1060144 0.06690752 -0.045463994
000140 f1 b4 8b bc 16 c7 b2 3d 2c 33 eb 3b a7 1a cf bd
       -0.017054053 0.08729379 0.007177731 -0.101125054
000150 62 5a d8 bb 03 7f 9f 3a d2 3a b4 3d aa 20 ac bd
       -0.0066025713 0.001216859 0.088002816 -0.08404668
000160 63 75 a9 bd 13 7e 90 bd 1a 96 db 3d 44 54 97 bd
       -0.08274343 -0.07055297 0.10721989 -0.07389119
000170 30 47 00 3e ac 88 f8 bc 9d c4 0f bc 3d 94 0c be
       0.12527156 -0.030338608 -0.008774904 -0.13728423
000180 3e 7d 41 3d 81 fd 1b bd c2 cc 26 bc f0 74 86 3d
       0.04723858 -0.038083557 -0.010180654 0.06565273
000190 78 8c 6d 3d a5 d9 b4 bd b5 35 d8 3d a7 43 d4 3d
       0.05799529 -0.08830575 0.10557119 0.10364466
0001a0 ac f8 ac 3d e6 34 98 3d 06 da 3c 3c 17 7c 2f bd
       0.08445868 0.074319646 0.01152659 -0.04284295
0001b0 f0 03 a2 bd 79 a4 67 3d 95 17 07 be a8 fe 47 bd
       -0.07910907 0.056553338 -0.1319259 -0.048826844
0001c0 11 46 c8 3d e2 45 b8 3d 42 56 52 3c 59 ac 8c bd
       0.09778989 0.08997704 0.012837948 -0.0686881
0001d0 0a bb 1c bd d7 36 be bc 94 1a 54 3d 51 97 8a bd
       -0.03826431 -0.023219509 0.05178316 -0.067671426
0001e0 fe c9 15 3d 2d 6d 5b 3d 8f 33 b1 3c df d2 14 bd
       0.036569588 0.053570915 0.02163103 -0.036333915
0001f0 02 03 03 3e a0 49 d6 bd 51 fb 20 bd 13 3e 43 bd
       0.12794116 -0.104632616 -0.039302174 -0.04766662
000200 19 b9 99 3d ee 33 96 bd e3 e4 9a bc 69 23 8b bc
       0.07506008 -0.073341236 -0.01890797 -0.016984658
000210 54 eb 05 3e 6a 8d c0 bd 4b a6 61 3c c0 36 85 bc
       0.13078052 -0.094019726 0.0137725575 -0.016261458
000220 8b d5 28 bd 2f dd 33 3d fa f4 4c 3c 39 c7 a4 bd
       -0.041219275 0.04391211 0.012509579 -0.08045811
000230 de d5 e6 bc 75 89 1e bd 9f 34 a1 bd c5 f1 82 bb
       -0.028178152 -0.038705308 -0.07871365 -0.0039961063
000240 e5 9a fb 3d fa d7 e7 bd a6 1b 6b 3d 38 3c 18 bd
       0.12285403 -0.11320491 0.057399414 -0.037166804
000250 6a 75 a5 3d ee 35 2c 3d 75 22 97 bc de ed 21 bc
       0.080790356 0.04204362 -0.018449048 -0.009883372
000260 b1 07 ba bd 55 6b c9 bd 09 34 8e 3b e3 33 84 bd
       -0.09083498 -0.09834925 0.004339699 -0.06455209
000270 68 67 a5 bd 8b 3f 7d 3d bf 15 b4 3d 26 1c 8a bd
       -0.08076364 0.061828177 0.0879321 -0.0674365
000280 d9 58 f5 bd 37 a5 4b bd 8e c7 81 3c ff ef 93 3d
       -0.11979837 -0.049718108 0.015842225 0.0722351
000290 1c 0c ba 3d 7a 11 0b be 25 55 c3 bc a4 e9 a8 bd
       0.09084341 -0.13580886 -0.023844311 -0.082476884
0002a0 6a 83 11 bd fd 9f 19 3d af ae a9 bd 7d 05 13 bc
       -0.035525717 0.037506092 -0.082852714 -0.0089734765
0002b0 68 68 3c bd d0 5d 13 bc 4a 99 b9 bd f7 b0 b3 3c
       -0.045998007 -0.008994535 -0.09062441 0.02193497
0002c0 46 44 88 3c 32 ea c3 3b a4 3b eb 3c 09 22 d2 3d
       0.016634118 0.005978846 0.028714962 0.10260398
0002d0 28 7c 93 3d 0f 46 ef 3c 1d c8 0b be 1a a8 14 3b
       0.07201415 0.029208211 -0.13650556 0.0022683204
0002e0 35 c0 e4 3d ae 9b 64 3d ab 2a a7 3c 2c bf b2 3d
       0.11169473 0.05581253 0.020406088 0.087278694
0002f0 ec 38 ba bc 16 96 40 bc e3 f8 71 bd 3c 6e e5 3c
       -0.02273222 -0.011754533 -0.059075247 0.028006665
000300 e2 7d d2 bd 77 9b 98 bd bf 7d 26 bd 75 e6 2e bd
       -0.102779165 -0.074515276 -0.040647265 -0.04270025
000310 77 01 b4 3d 74 19 92 bd ae 12 02 3e 61 9c 47 bd
       0.08789342 -0.07133761 0.12702438 -0.04873312
000320 d6 5a 99 bd 48 45 dd 3b 08 d9 cf 3d bc 27 bc 3d
       -0.07488029 0.0067526437 0.10148817 0.09187266
000330 4a ad 18 bd 0f 7a 63 bd 6b 41 db bd d2 18 05 3d
       -0.037274636 -0.055536326 -0.10705837 0.032494374
000340 0c 2b be 3c 3d 1e f0 3d a3 61 b5 bd a0 f3 91 3d
       0.023213886 0.117245175 -0.08856513 0.07126546
000350 9b 52 e8 3d 31 14 d0 3d 4a f1 c6 bd 5e a5 ee 3d
       0.11343881 0.10160101 -0.09713991 0.11652635
000360 44 ec b2 bd 0e 85 74 bb 63 e1 c6 3c 2c e5 ed bd
       -0.0873647 -0.0037310752 0.024277395 -0.11615977
000370 c6 00 90 3d 4b 9e 3b 3d a7 81 c8 3d 2d 02 53 3c
       0.070313975 0.045805257 0.09790354 0.012878937
000380 39 1f 86 bd 91 55 cb 3c a7 29 c7 bd 90 80 e0 bd
       -0.06548924 0.024821075 -0.097247414 -0.10962021
000390 6d 6b 5b bd ec 59 ba bd 89 3c f8 bd 0b 22 b5 bd
       -0.053569246 -0.090991825 -0.12120921 -0.08844384
0003a0 20 dd 0a bc 7e 7f e1 bd 79 15 f7 3c a2 9a d0 3d
       -0.008475572 -0.11010645 0.030161606 0.10185744
0003b0 a9 f3 84 bd c5 03 b9 bc 9a 52 a0 3c bf e3 2d bd
       -0.06491787 -0.022584805 0.019570637 -0.042453524
0003c0 52 e2 3c bc 74 8b d0 3c 65 16 ca 3d 21 52 24 bd
       -0.011528568 0.025457121 0.09867553 -0.040117387
0003d0 1e 61 f0 3d 02 07 bf 3c 9b 89 94 3d ea 62 a0 3b
       0.11737274 0.023318771 0.07252809 0.004894604
0003e0 62 f1 e8 3c fc da 49 bd f8 2c 76 bd 4e 02 9e bd
       0.028435413 -0.049281105 -0.06010148 -0.07715283
0003f0 04 2f 5a bd a3 88 05 be 3f a4 ae bd 43 f9 2e 3c
       -0.053267494 -0.13040404 -0.08527421 0.010679546

lstm.weight_hh_l1 f4 [256, 64]
000000 fb 2f 4a bd d5 06 aa 3d 29 ef 15 3d b5 7e 4a 3d
       -0.049362164 0.08302084 0.036605034 0.049437243
000010 97 d5 06 bc 2c 16 e7 3d ab 95 f6 bd e0 e7 d3 bd
       -0.008229635 0.11283526 -0.12040266 -0.10346961
000020 75 3d b6 bd c3 02 11 bd 5e ac 8c 3d a6 49 ac bd
       -0.08898441 -0.035403024 0.06868814 -0.08412485
000030 02 5d 74 bd b6 6d 49 bb 3c 0e 2c 3d b7 bc af bd
       -0.05965901 -0.0030735559 0.042005762 -0.085809164
000040 bd 9e 85 bd 21 68 27 bb c8 c0 bf bd da d1 00 3d
       -0.065244175 -0.0025544243 -0.09362942 0.03145013
000050 1c 2b dc 3d 73 97 8a bd 9d 5a d3 bd 61 eb cc bb
       0.1075041 -0.06767168 -0.103200175 -0.0062536453
000060 a9 32 9c 3d 59 4d d2 bd 35 02 f2 3c d3 2f 75 3d
       0.0762685 -0.10268659 0.029542068 0.05986006
000070 ac 11 b6 3c c1 d0 ee bd b1 2e e4 bd 52 d3 af 3d
       0.022225223 -0.116609104 -0.11141718 0.08585228
000080 bd 38 dd 3c 41 a4 a1 3d 7d 18 fe bc 96 15 13 3d
       0.027004594 0.07892657 -0.031017536 0.035909258
000090 e7 b1 4e bd 7f d5 45 bd dc a1 ca 3d bf 0a cc 3c
       -0.05046263 -0.04829931 0.098941535 0.024907468
0000a0 eb 06 77 3c 2b a1 5e 3d e4 f5 f8 3d a6 c7 65 bd
       0.015077333 0.05435292 0.12156275 -0.056098603
0000b0 2c 6b 95 3d 78 c5 e4 bb c7 7a 05 3d 5d 82 0c bd
       0.07295832 -0.006981548 0.032587793 -0.03430401
0000c0 65 ae cd 3d 49 0f 60 bd fe ba b8 3c a1 ad 98 3d
       0.10043029 -0.054702077 0.022550102 0.07454992
0000d0 7c f1 c1 bd df a4 0b bd 7f 90 60 bd 28 1f da 3c
       -0.094698876 -0.03409278 -0.054825302 0.026626185
0000e0 b5 29 5e 3d 5f a9 bf 3d 9f d4 ee bd 93 98 c6 bd
       0.054238994 0.09358477 -0.11661648 -0.0969707
0000f0 16 22 c2 bd 40 4b 3f 3c 83 1a 91 bb 97 e1 a4 bb
       -0.094791576 0.011675656 -0.0044282093 -0.005031775
000100 fa 62 7a 3d 08 c2 81 bc 7e 60 ec 3d a1 92 0c be
       0.061129548 -0.015839592 0.11541842 -0.1372781
000110 af a0 ba 3d 48 96 01 3e f2 d4 d1 3c 67 0e 87 bd
       0.09112679 0.12654984 0.025614236 -0.06594544
000120 0d de c9 bd 81 e0 b1 3d a0 c8 5c 3d 97 bc 99 bd
       -0.09856806 0.08685399 0.05390227 -0.07506674
000130 28 ba b5 3d d6 fa 19 bd 54 a7 c4 bd 93 dd 19 bc
       0.08873397 -0.03759273 -0.09602228 -0.009391206
000140 e3 75 44 bd 0b b8 fd bd 09 c0 9d bd c2 17 13 bd
       -0.047963988 -0.12388619 -0.077026434 -0.03591133
000150 fb a1 a0 bd 0a 1f 76 3d dd 3f b5 3d e6 7d c9 bc
       -0.07843395 0.060088195 0.088500716 -0.024596166
000160 d8 dd 80 bd 65 fd be bd f7 f7 04 3e 05 c0 16 bb
       -0.06292313 -0.09325675 0.12985216 -0.0023002636
000170 e3 30 c7 bd 52 e6 c7 bd 0d cb 8f bc 38 b5 02 bd
       -0.09726121 -0.09760727 -0.017552877 -0.031911105
000180 1e 7c f5 3d 7b aa 85 3d d7 d3 be 3c 84 d4 d1 bd
       0.11986564 0.06526657 0.023294372 -0.10245612
000190 42 47 77 bd d1 e8 fb bc 51 f6 3f bd 9f a8 ee 3c
       -0.06037069 -0.030750664 -0.046865765 0.02913314
0001a0 ad 5b 97 bd 73 f6 bc bb 74 31 31 bd a4 e2 9d bd
       -0.07390533 -0.0057666837 -0.043260053 -0.07709244
0001b0 20 73 c6 bd ed 0f d2 bd d1 0b 9f 3c 51 a4 e1 bc
       -0.09689927 -0.10256944 0.019414814 -0.027544172
0001c0 b3 33 ce 3d 0f d8 cc 3c 49 0e 72 3b 49 c5 9f 3d
       0.100684546 0.025005369 0.0036934784 0.07801301
0001d0 f4 2a b0 3a a8 2c 28 bc 2b df b6 bd 62 6e bf 3d
       0.0013440535 -0.010264553 -0.08929285 0.09347226
0001e0 d0 59 d9 3d be ba aa 3d 8f b2 f6 bc d3 f0 50 bd
       0.106128335 0.083363995 -0.03011444 -0.051010918
0001f0 87 aa ba 3d 4d ca b5 3b 04 7b 8e 3d 44 c7 5e ba
       0.09114557 0.005547798 0.06957057 -0.0008498321
000200 e9 2b c1 bd 6d f2 d8 3d db c0 9f bd cd d2 12 be
       -0.09432203 0.10593114 -0.07800456 -0.14338227
000210 a0 9c ae 3d 59 05 a7 3d 3c ad 68 bd 12 76 99 bd
       0.085259676 0.08155317 -0.056805834 -0.07493223
000220 a0 ec 3e bd db 7b 17 bc 0a c0 8c bd 1e 3d 8e bd
       -0.046612382 -0.009245838 -0.06872566 -0.06945251
000230 98 ed 91 3d af e3 64 3d e6 02 2d 3d f5 0d d4 bd
       0.071253955 0.0558812 0.042239092 -0.103542246
000240 07 00 b5 3a 5f 0d 85 bc af ba 0c 3e be 4b b1 bd
       0.0013809212 -0.016241727 0.13743089 -0.08657025
000250 60 c8 10 be 02 7b 00 3c 54 97 5a 3d ad ca f0 3d
       -0.14138937 0.007841827 0.053366974 0.11757407
000260 68 17 af bb d2 6b 89 3d a3 50 c8 bc 52 82 f0 bd
       -0.0053433664 0.06710018 -0.024452513 -0.117436066
000270 2a 4d 1d 3c 20 f3 c0 bd 86 60 ee 3c 19 44 8d bb
       0.009600917 -0.094213724 0.02909876 -0.0043110964
000280 73 5a 4b 3d 7d f3 5d bd c5 35 0d be c7 8e c3 3d
       0.049646806 -0.054187287 -0.13790043 0.09548717
000290 56 33 9b bd 08 64 9c bd dd 0d c9 3d 9c b6 ec 3d
       -0.07578151 -0.07636267 0.09817097 0.115582675
0002a0 f5 6b 90 3d e3 89 cc bd ad 40 10 be fa 07 a7 bc
       0.07051841 -0.09987237 -0.14087172 -0.020389546
0002b0 80 d9 a5 3d 09 0c c6 bc 9c dd 2c 3c 9b 03 3a bd
       0.080981255 -0.02417566 0.010550883 -0.045413595
0002c0 1a 01 8c bd 7b b8 1c 3d 03 b4 d3 bd 46 33 96 bd
       -0.068361476 0.03826187 -0.10337069 -0.073339984
0002d0 dd 08 33 bb be 8f d3 3d 0a 33 22 bd 3c d6 ab 3d
       -0.0027318515 0.10330151 -0.039599456 0.08390471
0002e0 ba 22 d1 3d 1c c6 7c bd c1 7b 90 3c dd a7 aa bd
       0.10211702 -0.06171237 0.017637135 -0.08332799
0002f0 e6 ff ae bc d0 ea 11 3e 38 2b 19 bd 02 8e cc bc
       -0.021362256 0.1424973 -0.037394732 -0.024970058
000300 af 76 ca 3c 8a a9 87 bd a5 53 0c bb 2e 30 a8 bd
       0.024714796 -0.06624134 -0.002141216 -0.082123145
000310 66 73 23 bd da bc 8b bd 85 ad f9 bd ea f5 f1 bd
       -0.039904974 -0.0682313 -0.12191299 -0.118144825
000320 90 96 50 bd 92 cc f4 3d b3 c2 5c 3d f9 29 8f 3c
       -0.050924838 0.11953081 0.053896617 0.017476069
000330 53 54 49 b9 77 6a 6e 3d 9a 75 9c bd da 81 85 bc
       -0.00019200267 0.058207 -0.07639618 -0.01629727
000340 d4 b2 10 bc 29 06 e4 bc 4f 7d bb bb c0 66 1e bd
       -0.008831698 -0.027834969 -0.005721725 -0.03867221
000350 c0 50 25 bd 6b 82 fa bb d5 5c df 3d 3b 4a 9a bd
       -0.040360212 -0.0076449416 0.10906378 -0.075336896
000360 4e c5 ed 3d ae 79 61 3b 51 1b a3 3c 07 dd 40 bd
       0.116098985 0.0034404802 0.019910486 -0.047085788
000370 5d e1 58 3d 34 08 a0 3c 13 80 cf 3d b3 e2 af bd
       0.0529493 0.019535162 0.1013185 -0.08588161
000380 0b ff d0 bd af 1d 8e bd d3 8e 40 3d 6a bc 8e bd
       -0.102048956 -0.069392554 0.047011208 -0.06969531
000390 bb 0a 0c bd eb 08 a6 3b 0c cd 3a 3d 26 1e a7 bd
       -0.03418992 0.005066981 0.045605704 -0.08160047
0003a0 f7 26 88 3d 9c d6 8e bd 80 68 7b bd 63 03 df bd
       0.06648057 -0.06974527 -0.061378956 -0.10889318
0003b0 59 98 02 be fb bc ba bd 0b c0 17 bd 46 6e b3 3d
       -0.12753429 -0.091180764 -0.03704838 0.08761267
0003c0 7d fa 00 3e fa 9f 9f bd 8d 03 c3 3b 8d f7 e6 bd
       0.12595554 -0.07794185 0.005951351 -0.11277685
0003d0 32 ae de 3d 2e 26 a5 3d 5f da d2 3d 9c 53 c9 3d
       0.10873069 0.08063923 0.10295557 0.098304
0003e0 d9 63 b8 3b ec 56 c2 bd 70 b0 b0 bc 73 0d 6d 3d
       0.005627137 -0.09489235 -0.021568507 0.057874154
0003f0 ec e9 4e bd 98 71 0f 3d c8 75 b2 bd ec 7d ad bd
       -0.050516054 0.03502044 -0.08713871 -0.08471283

lstm.bias_ih_l1 f4 [256]
000000 b8 f2 24 3d e6 e6 f4 3c e5 47 3b bc 84 ed 80 3d
       0.040270537 0.029895257 -0.011430715 0.062953025
000010 a2 ff 1d 3c 81 cf 9f bc ef d2 a2 bd 7f 56 a9 bc
       0.009643467 -0.019508125 -0.07950389 -0.020671127
000020 8a a2 1d bd 61 3e bf 3c f4 c0 9f 3d fc 84 bf bd
       -0.038485087 0.023345174 0.07800475 -0.09351537
000030 bb f3 85 bd e0 f2 93 3d 61 a2 57 3d 02 15 71 bb
       -0.065406285 0.07224059 0.05264509 -0.0036786203
000040 fe 18 0c 3d f5 87 ed bb 7e 0c bb 3d 02 78 c8 bd
       0.034203522 -0.0072488734 0.09133242 -0.09788515
000050 d4 d6 0d 3d 92 76 dd 3c 1c 4e 3a 3d 78 88 b3 bd
       0.034628704 0.027034078 0.045484647 -0.08766264
000060 d1 4f cc 3d 2c c2 c0 3d 93 b7 09 bd 81 8d 00 3e
       0.09976161 0.09412035 -0.033622336 0.1255398
000070 f2 20 d3 bd a3 5d 4b bc 8b bd 38 3d 74 48 e6 3d
       -0.10309018 -0.012412461 0.045102637 0.11244288
000080 68 b8 53 bd 12 06 e7 3d 59 1f 92 3d c4 f0 6e 3d
       -0.051689535 0.11280455 0.07134885 0.05833508
000090 9c 59 ec 3d 49 7d de 3c 64 36 c0 3d d1 0a 07 3e
       0.11540529 0.02715935 0.09385374 0.1318772
0000a0 88 bd 7b bd d3 b1 09 3e 67 12 45 3d d5 29 75 3d
       -0.061460048 0.13446741 0.048113253 0.059854347
0000b0 6f 4c 45 3d 13 aa ce bd cf 89 9d bb f9 a2 95 bd
       0.048168596 -0.10091033 -0.004807688 -0.07306475
0000c0 46 76 9f bd 40 51 73 bd 8c 56 0a 3e bc c4 bf 3d
       -0.07786231 -0.059403658 0.13509578 0.09363696
0000d0 c4 63 11 3d 44 76 ea 3c 15 e6 0d 3d 01 c9 b8 bd
       0.035495535 0.028620847 0.03464325 -0.090227135
0000e0 d0 19 96 bc 20 8e c8 bd d3 a4 b0 bd 6d 8f 0e 3e
       -0.018322855 -0.09792733 -0.08625188 0.139219
0000f0 49 0d cf bc f6 78 c9 bd 82 aa f1 3c 81 b8 a0 3d
       -0.02527489 -0.098375246 0.02950025 0.07847691
000100 08 30 04 be 5b 07 93 bc ef a9 f9 ba 10 74 ab bd
       -0.12908947 -0.017947843 -0.0019047837 -0.083717465
000110 fb cb c7 3d ce fc 3f 3d 73 e2 ef 3c 09 e5 57 3d
       0.09755703 0.046871953 0.029282784 0.05270866
000120 30 1a ff bd ad 9a 8d bd 64 98 e6 3a 11 df c4 bd
       -0.12456167 -0.06914268 0.0017593023 -0.09612859
000130 dc 15 68 3d bb b7 bd bd 48 7d 0a 3e 0d 88 b1 3d
       0.05666147 -0.092635594 0.13524354 0.08668528
000140 bd fc 08 3e 2d a8 f5 bd 52 39 82 bd a3 24 5d bd
       0.13377662 -0.119949676 -0.06358589 -0.053990018
000150 55 05 8d 3d 00 b0 20 3c 80 4a a5 3d 0e 5d 9c 3d
       0.06885783 0.009807587 0.0807085 0.07634936
000160 6f ab 37 bd fd 8a bd 3d 5f e6 ed 3d 56 9a bd 3d
       -0.044841226 0.092550255 0.116162054 0.09257953
000170 11 d7 bd 3c 89 0d 45 3c ba 86 9b bd d3 59 fb 3d
       0.02317384 0.012027153 -0.075940564 0.12272992
000180 e0 12 e3 bc 93 99 54 bb a9 1b ce bc 03 2d c2 bb
       -0.027718961 -0.003244017 -0.025159674 -0.005925776
000190 4c a6 29 bd dc 76 56 bd 77 aa cf 3d f6 d9 24 3b
       -0.04141836 -0.052359447 0.101399355 0.002515433
0001a0 ad ee 81 bd 57 c4 7a bd 36 29 06 3e 1e af ad bc
       -0.06344352 -0.0612224 0.13101658 -0.021201666
0001b0 35 35 a9 3d 8a 0f d7 3d 58 c1 2f 3a 89 4f 96 bd
       0.082621016 0.10501011 0.00067045307 -0.07339389
0001c0 f7 f0 cc bd bd 29 c8 bd 8d 92 c2 bd 7e a5 52 3b
       -0.10006898 -0.09773586 -0.095006086 0.0032142098
0001d0 34 e3 a7 3d ac c9 b3 bd 00 7d 94 3d 26 96 e4 bd
       0.081976324 -0.087787 0.07250404 -0.11161451
0001e0 3f 04 fd 3c f2 56 77 bd c0 5e d6 bd 80 53 8b bd
       0.030885814 -0.060385652 -0.10467291 -0.06803036
0001f0 a3 51 a5 3d 46 b8 f2 3d 71 bd 97 3c a3 eb d5 3d
       0.080722116 0.118515536 0.01852295 0.10445335
000200 81 db 8a 3d 23 5c 0e be 46 d5 b0 bd 08 fe 6f 3c
       0.06780148 -0.13902335 -0.08634429 0.014647968
000210 d1 ed 49 3c f9 c3 2b 3d 45 73 ae bc e5 e6 c1 3d
       0.012324766 0.04193494 -0.0212952 0.09467868
000220 38 b9 a3 39 75 81 ff 3c 66 98 8b bc 5c 6a 1c 3c
       0.0003122778 0.03118966 -0.017040443 0.009546842
000230 52 0a a4 3c 4f dd c0 bc 7f 92 b9 3d cd dc d3 bd
       0.020024452 -0.023543028 0.09061145 -0.10344849
000240 77 df 3d bd 3d bb c8 bd 7c e7 0b bd 72 c8 5e bd
       -0.04635569 -0.09801338 -0.034156308 -0.05439038
000250 4c ba 5f bd 13 56 2b bd 0c b6 ec 3d e0 39 94 bd
       -0.054621026 -0.041830134 0.1155816 -0.07237601
000260 c7 95 c4 bd fd b0 b6 bd af 84 c6 3d 36 4d de bc
       -0.0959888 -0.089204766 0.09693276 -0.027136426
000270 14 cc f1 bd 23 3d 94 bc 13 93 c2 3c 78 31 d3 bd
       -0.11806503 -0.018095559 0.023751771 -0.1031217
000280 a6 7d 17 bd 9f e3 bc 3b cf 47 86 3d 2b 32 40 bd
       -0.036985062 0.0057644392 0.06556665 -0.046922844
000290 5a 53 12 3d 9e b9 f1 3c e0 9c e6 3d 50 0d 56 bd
       0.03572402 0.029507454 0.1126039 -0.05225879
0002a0 d2 44 f2 3d c7 7e fe 3d 35 e8 bf 3a 5a be 01 bd
       0.11829533 0.124265246 0.0014641347 -0.031675674
0002b0 d9 d2 7f bd 71 0a f5 bc de 22 d7 3d 3e 51 84 bc
       -0.06245694 -0.029912205 0.10504697 -0.01615202
0002c0 91 44 26 bc 46 94 26 bd 91 59 f8 bd ab a0 b3 3d
       -0.010148183 -0.04066875 -0.121264584 0.08770879
0002d0 dd 80 d1 3d 9e b4 e0 bc 30 19 b2 3c eb d3 c9 bd
       0.10229657 -0.027429875 0.021740526 -0.09854873
0002e0 5b e0 c5 bd 7c f7 9a bd 06 df b9 bd 37 73 ca bd
       -0.09661933 -0.07566735 -0.090757415 -0.09885257
0002f0 0f 49 83 bc 02 a4 95 3d 65 15 0b be 2b ed 6f 3d
       -0.016026048 0.07306673 -0.1358238 0.05857579
000300 52 8b 34 3d e1 3f a2 3d 43 4a 72 bb 2c 0b d2 bd
       0.04407818 0.0792234 -0.0036970533 -0.10256037
000310 43 c0 7b bd bf 77 51 bd c3 ee 4f 3c 52 3f 89 3d
       -0.061462652 -0.05113959 0.012691203 0.067015305
000320 fc db bb bd 6e c4 e7 3c 26 fa d9 3d ef 2d 41 3d
       -0.09172818 0.028291907 0.10643415 0.047162946
000330 bd bf 6d 3d d7 63 89 3c a0 16 a9 bc 34 fa 3a 3d
       0.058044184 0.01677124 -0.020640671 0.04564877
000340 67 f4 ca 3d e2 50 cd 3a 75 aa 73 bd e2 8d 90 3d
       0.09909897 0.0015664364 -0.059488732 0.07058312
000350 ea da 8c bd 8f 43 6f bd b3 fc f7 3d f0 1f bf 3d
       -0.06877692 -0.05841404 0.121087454 0.093322635
000360 43 0a e9 bc e8 c1 d8 3d 9c 46 43 bd 0a 4a 2e 3d
       -0.028447276 0.1058386 -0.04767476 0.042551078
000370 1f bc de 3d bf 86 d0 3d 01 a8 7b 3d 7c 05 81 bc
       0.10875725 0.10181951 0.061439518 -0.015749685
000380 ae d2 ab bd 7f 97 0a 3e 3d fa bc 3c bc d1 3b 3d
       -0.08389793 0.13534354 0.023068542 0.045854315
000390 b6 cd 4b 3c 58 c9 e2 3d 09 0e b5 bd 8e 52 22 3d
       0.012439182 0.110735595 -0.088405676 0.03962951
0003a0 2b 65 4f bd 7a 52 7f 3d 5f 7f 09 3e 18 68 89 bd
       -0.05063359 0.062334515 0.13427494 -0.067093074
0003b0 f8 0f f3 3c 21 9f 03 3e 13 2a d9 3d 8d f7 5e 3d
       0.0296707 0.12853672 0.10603728 0.0544353
0003c0 1f 9d 49 3d 0b 9e 52 bc 11 43 36 3d 06 27 f8 bd
       0.049222108 -0.012855063 0.044497553 -0.12116818
0003d0 33 be b6 3d a1 b1 d0 bd 64 29 fe bc 59 f7 f7 bc
       0.08922996 -0.1019013 -0.031025596 -0.030269312
0003e0 54 dd 6f 3d 79 f8 8b bc 75 89 bf ba 20 b0 5f 3d
       0.058560684 -0.017086254 -0.0014613109 0.054611325
0003f0 a7 ba ff bc e1 73 dc 3d 8a dd ae bd 74 7f 44 bc
       -0.031216932 0.1076429 -0.08538349 -0.011993278
